beliefppg/inference/inference_model_notimebackbone_weights.npz (npz, 257724 bytes, 54 tensors)

arr_0 f4 [3, 3, 2, 32]
0	0xbdbc13c5	-0.09183458
1	0xbd5596dd	-0.052145828
2	0xbdd9ee1d	-0.1064112
3	0xbdc34496	-0.09534566
4	0x3d89857c	0.06714913
5	0x3d238d81	0.03992987
6	0xbd54a1a3	-0.05191196
7	0x3d8cfc24	0.068840295
8	0x3de73166	0.11288719
9	0xbd9f0739	-0.077650495
10	0xbd03fc98	-0.032223314
11	0x3d8e9dfd	0.069637276
12	0xbd96891d	-0.07350371
13	0xbdcc0d60	-0.099634886
14	0x3d9ea372	0.077460185
15	0x3d11d679	0.035604928
16	0xbe007318	-0.12543905
17	0xbbcf4612	-0.0063254917
18	0x3bf97461	0.0076127504
19	0xbd56bd56	-0.05242666
20	0xbd202513	-0.039097857
21	0x3d74f60e	0.05980497
22	0xbd201fde	-0.03909289
23	0xbae9cf15	-0.0017838205
24	0x3dde5527	0.10856085
25	0xbe0142d3	-0.12623148
26	0x3d923981	0.07139874
27	0x3d542d7e	0.051801197
28	0x3d0580b4	0.032593444
29	0x3d92c6ec	0.071668476
30	0xbd866c76	-0.06563656
31	0xbb85794b	-0.004073297
32	0x3cfe885a	0.031070877
33	0x3c57ab91	0.013163463
34	0xbcfb5dbd	-0.030684346
35	0x3c9b8727	0.018985344
36	0x3d1b1db0	0.03787011
37	0xbc8e4b7b	-0.017369976
38	0x3b6bb5a7	0.0035966428
39	0x3dda3edf	0.10656523
40	0xbd045319	-0.03230581
41	0xbb9f12c4	-0.004854532
42	0xbdeab685	-0.11460594
43	0x3d9aae52	0.0755278
44	0x3d7c3939	0.06157801
45	0x3d069741	0.03285909
46	0xbe0ed959	-0.13950099
47	0xbe2960d6	-0.16540846
48	0x3bc7acbb	0.006093589
49	0xbd02c8ac	-0.031929657
50	0x3dafbe33	0.085811995
51	0x3d8c4863	0.06849744
52	0xbcb33289	-0.021874683
53	0xbd0fbf52	-0.035094567
54	0x3df95046	0.12173514
55	0x3dda91b3	0.10672321
56	0xbc0cc924	-0.008592878
57	0x3d9fcbf8	0.07802576
58	0xbdaa4065	-0.083130635
59	0xbc2a19c4	-0.01038212
60	0xbcdd91e7	-0.02704711
61	0x3c258907	0.010103471
62	0xbd9ae391	-0.07562936
63	0x3c43a756	0.011941751
64	0x3d2bf07c	0.04197739
65	0xbcd3ff48	-0.025878564
66	0x3e067fa9	0.13134636
67	0x3de81799	0.11332626
68	0xbd195ae0	-0.03744018
69	0xbd1a2e36	-0.037641726
70	0x3da45390	0.08023751
71	0xbc07a56d	-0.008279187
72	0xbe0694ff	-0.13142775
73	0x3dbeeb18	0.09322184
74	0x3dabed2f	0.083948486
75	0xbd69332e	-0.056933574
76	0xbd0314ce	-0.032002263
77	0xbd3e2d29	-0.046429787
78	0x3da6af6d	0.081389286
79	0xbda44aa7	-0.08022051
80	0x3dfc0876	0.12306301
81	0xbd0fefe5	-0.03514089
82	0xbd860db5	-0.06545583
83	0xbc6b5e45	-0.014365737
84	0x3ce30c82	0.027715925
85	0x3de104be	0.109872326
86	0xbd69a5bf	-0.057042833
87	0xbc88d7c6	-0.016704451
88	0xbcf3e271	-0.029771062
89	0xbe072920	-0.13199282
90	0xbb415f22	-0.0029506166
91	0xbd07457a	-0.033025242
92	0xbccd35f8	-0.025050148
93	0xbc8ff680	-0.017573595
94	0x3b841cac	0.0040317383
95	0xbc44dddb	-0.012015785
96	0x3ddfb78d	0.109236814
97	0x3d45ef78	0.04832408
98	0x3d294e9f	0.041334745
99	0xbd1889d7	-0.03724083
100	0x3c2ad13a	0.01042586
101	0x3d8d0f19	0.06887645
102	0x3e138076	0.14404473
103	0x3d17628e	0.036959223
104	0x3d8af381	0.06784726
105	0xbddef670	-0.10886848
106	0x3dce05f8	0.10059732
107	0xbd8c201e	-0.06842063
108	0xbd903852	-0.07041992
109	0xbd8f1502	-0.06986429
110	0x3bffd1ff	0.007807016
111	0x3e402071	0.18762375
112	0x3c0679c4	0.008207742
113	0x3cd253cf	0.025674729
114	0xbd62d8eb	-0.05538265
115	0xbd41d81f	-0.04732525
116	0x3d017574	0.031606153
117	0xbd7db6c5	-0.06194188
118	0xbd5e8f8c	-0.054336116
119	0xbd904ef5	-0.0704631
120	0xbb655dd8	-0.0034998562
121	0x3bcbbf3b	0.006217865
122	0x3d891de8	0.06695157
123	0x3d58f0d3	0.052964043
124	0xbd3b53c9	-0.0457342
125	0xbda5c667	-0.08094483
126	0x3cf1ee2b	0.029532513
127	0xbce074e9	-0.027399497
128	0x3c8409ed	0.016118014
129	0xbdb39bbc	-0.08769938
130	0xbdf58eb5	-0.1199011
131	0xbd8f71a9	-0.07004101
132	0xbd96f19a	-0.073703006
133	0x3d7bca04	0.061471954
134	0xbdd489f6	-0.103778765
135	0x3ce2aba6	0.027669739
136	0xbb8c9ae4	-0.0042909253
137	0xbdb39d38	-0.087702215
138	0xbad19839	-0.00159908
139	0x3c07d7ca	0.008291194
140	0x3cd85acd	0.026410485
141	0x3e044203	0.12915806
142	0xbcb0f501	-0.021601202
143	0x3d25f49a	0.040516473
144	0xbd79cce6	-0.060986422
145	0x3d66ef6f	0.056380685
146	0xbcd7b878	-0.026333079
147	0x3c8ba416	0.017046016
148	0xbda6a743	-0.081373714
149	0x3d20a42b	0.039219063
150	0x3e0b2010	0.1358645
151	0xbc835024	-0.016029425
152	0xbdcf5982	-0.10124494
153	0x3b82f2ba	0.0039962204
154	0xbdb92471	-0.09040154
155	0x3dba4359	0.09094877
156	0xbc68ac10	-0.014201179
157	0x3b07a557	0.0020697915
158	0xbda5f987	-0.08104234
159	0xbc24dd80	-0.010062575
160	0xbdc93d32	-0.09826125
161	0xbde172c6	-0.110082194
162	0xbc809fae	-0.015701141
163	0x3d0c0ea3	0.034193646
164	0xbd9f44b5	-0.07776777
165	0xbe07c568	-0.13258898
166	0xbdc1a392	-0.09455027
167	0x3c939b19	0.018018292
168	0xbd5c0b42	-0.053721674
169	0x3e19b525	0.15010507
170	0xbc3e04ae	-0.011597795
171	0xbd2aca60	-0.041696906
172	0x3d83be3c	0.06432769
173	0x398e952e	0.00027195498
174	0x3c377e30	0.011199519
175	0xbcc454e1	-0.023966255
176	0xbd801336	-0.06253664
177	0x3c39fd4e	0.011351896
178	0xbc88a05e	-0.016678032
179	0x3ca098f4	0.019604184
180	0xbda9ea09	-0.08296592
181	0xbcd9ebc6	-0.026601683
182	0xbd8e625b	-0.069523536
183	0x3d2b3465	0.041798014
184	0xbc2b5319	-0.010456824
185	0x3d0b9f84	0.034087673
186	0xbcae0eaa	-0.021247227
187	0xbdaec40c	-0.08533487
188	0xbcf11595	-0.029429236
189	0x3d09e67b	0.03366707
190	0xbcfa3d32	-0.030546758
191	0x3df16156	0.117861435
192	0xbc3f1b13	-0.01166417
193	0xbd63deb3	-0.055632304
194	0x3c4bbf0d	0.012435687
195	0xbc0ec375	-0.008713593
196	0xbd984491	-0.07434953
197	0xbcf3fc18	-0.029783294
198	0xbccb8432	-0.02484331
199	0x3b9d526a	0.0048010843
200	0x3e3bc209	0.18335737
201	0xbe28d2a2	-0.164866
202	0xbbf917dc	-0.007601721
203	0xbe245b11	-0.16050364
204	0x3e0a6cf4	0.13518125
205	0xbd7bbfc9	-0.061462197
206	0xbcf0596b	-0.029339513
207	0x3e2d7309	0.16938414
208	0x3da2d6bd	0.07951114
209	0xbc9e4351	-0.019319208
210	0x3dccb007	0.09994512
211	0xbd958058	-0.0729987
212	0x3d9b5825	0.075851716
213	0xbda455ee	-0.08024202
214	0x3c861da6	0.01637156
215	0xbd5173d8	-0.051135868
216	0xbdba7820	-0.09104943
217	0x3dc7e6c7	0.09760814
218	0x3e2fd0d4	0.17169505
219	0xbe092f0f	-0.13396858
220	0xbdcf1796	-0.101119205
221	0x3c972864	0.018451877
222	0x3e131db3	0.14366798
223	0xbdeeb487	-0.116555266
224	0x3bdcd611	0.006739386
225	0x3c097cf1	0.008391605
226	0x3cd423d7	0.025895996
227	0xbe1cc636	-0.15309986
228	0x3cd7ee5d	0.026358778
229	0xbc026663	-0.007958981
230	0x3b760b5e	0.0037543396
231	0xbd265c3f	-0.040615316
232	0x3d8e0de7	0.069362454
233	0xbd334230	-0.043764293
234	0xbd08df39	-0.033416007
235	0x3dbb0903	0.09132578
236	0x3d81b389	0.06333072
237	0x3cc6aa4c	0.024251126
238	0x3d3e24af	0.046421703
239	0xbd292f2b	-0.04130475
240	0xbc104ee5	-0.008807872
241	0x3d407cfc	0.046994194
242	0xbd192fbe	-0.037399046
243	0x3d5a202f	0.05325335
244	0x3c84b20b	0.016198179
245	0x3d89412a	0.06701882
246	0x3da49c62	0.0803764
247	0x3dd6c4b7	0.10486739
248	0xbc541995	-0.012945552
249	0xbdb8413f	-0.0899682
250	0x3d0af644	0.033926263
251	0x3cdaf321	0.026727261
252	0xbdbc7539	-0.09202046
253	0xbd08ba00	-0.03338051
254	0xbd848c5a	-0.064720824
255	0xbdf5673a	-0.119825795

arr_1 f4 [32]
0	0xbd07c927	-0.03315082
1	0xbd49c62d	-0.04926126
2	0xbd27fc42	-0.041012056
3	0xbe1b4ba6	-0.15165576
4	0xbd970699	-0.07374305
5	0xbd53c4d2	-0.051701374
6	0xbd1b36b5	-0.03789397
7	0xbdd1d9d3	-0.10246625
8	0xbd22c7ba	-0.039741255
9	0xbd6c814c	-0.057740495
10	0xbdb56395	-0.088568844
11	0xbd8e904c	-0.06961116
12	0xbdc0773d	-0.09397743
13	0xbd95d56d	-0.07316098
14	0xbe658b43	-0.22416405
15	0xbd4e5ce3	-0.050381552
16	0xbd8309b9	-0.06398339
17	0xbd482fc0	-0.048873663
18	0xbdf689e1	-0.12038017
19	0xbd11c3e7	-0.035587218
20	0xbd22cb33	-0.039744567
21	0xbc78b48e	-0.015179766
22	0xbd63c32d	-0.055606056
23	0xbd09b0af	-0.033615764
24	0xbe12c8b9	-0.14334382
25	0xbd8c180b	-0.06840523
26	0xbd617569	-0.05504361
27	0xbd7d252f	-0.06180304
28	0xbde2bbe7	-0.11070996
29	0xbd211758	-0.039328903
30	0xbd4920b8	-0.04910347
31	0xbc4f2294	-0.012642521

arr_2 f4 [3, 3, 32, 32]
0	0xbca21538	-0.019785509
1	0x3d7202e0	0.059084773
2	0xbd320d03	-0.04346944
3	0x3d300c30	0.042980373
4	0x3d1103aa	0.035403885
5	0xbd067734	-0.032828525
6	0x3cd1c502	0.025606636
7	0xbdf61d03	-0.12017252
8	0x3c902ab3	0.017598486
9	0x3cc1034d	0.023561144
10	0x3ccde05d	0.025131399
11	0xbe22a1ed	-0.15882082
12	0x3adb8456	0.0016747813
13	0x3d5ad168	0.05342236
14	0xbcc1184e	-0.02357116
15	0xbb698b71	-0.0035636092
16	0x3d9185ad	0.07105575
17	0xbc9b7199	-0.018975066
18	0xbc1f211b	-0.009712483
19	0x3d9fddb4	0.078059584
20	0x3e03b009	0.12860121
21	0xbdcbcd37	-0.09951251
22	0xbdc24383	-0.09485533
23	0xbd810211	-0.06299222
24	0x3d047a17	0.032342996
25	0xbe017772	-0.12643221
26	0xbde59c9d	-0.11211512
27	0xbdfa4462	-0.12220074
28	0x3d5204c5	0.05127408
29	0xbc8c386e	-0.017116752
30	0xbe07068e	-0.13186094
31	0xbe2500e2	-0.16113618
32	0xbd9aa883	-0.07551672
33	0x3c1418d5	0.009039124
34	0xbe06471b	-0.13113062
35	0xbcfa60f6	-0.030563813
36	0xbd47683d	-0.048683394
37	0xbd3450a5	-0.04402222
38	0xbe1c2b81	-0.1525097
39	0xbd35f9c0	-0.044427633
40	0x3cbb1d0f	0.022841005
41	0x3ca982ae	0.020692196
42	0xbd5d8c38	-0.0540888
43	0xbcbda886	-0.023151647
44	0x3d8d7f6b	0.06909069
45	0xbc837227	-0.016045643
46	0x3d3aef07	0.04563811
47	0xbd4430e1	-0.047898177
48	0xbcc4ab22	-0.024007384
49	0x3d8b3aee	0.06798349
50	0xbdcd69b8	-0.1002993
51	0xbcbe72b0	-0.023248047
52	0xbd0afce0	-0.033932567
53	0xb9ab65b8	-0.00032691448
54	0x3c419c99	0.011817121
55	0x3cad2810	0.021137267
56	0x3cde654a	0.027147908
57	0xbda87063	-0.08224561
58	0x3d1f68e4	0.03891839
59	0xbc5d9698	-0.013524674
60	0xbc86da84	-0.016461618
61	0x3dc8b14f	0.09799444
62	0xbd55b9fc	-0.05217932
63	0xbd984ee3	-0.074369214
64	0x3d7caa95	0.061686117
65	0xbcefa4b7	-0.029253347
66	0xbd15b908	-0.036553413
67	0x3c6d13b9	0.014470034
68	0x3d8e4a83	0.06947806
69	0xbc96194c	-0.01832261
70	0xbe3fabaf	-0.18717836
71	0x3d362264	0.04446639
72	0xbcf6c45a	-0.030122925
73	0x3bccaa6c	0.006245902
74	0xbd1da87f	-0.03849077
75	0xbd549075	-0.051895577
76	0xbc025b66	-0.007956361
77	0x3d07e9d0	0.033181965
78	0xbd95c791	-0.07313455
79	0xbd5c7236	-0.053819858
80	0xbd50042a	-0.05078522
81	0x3d522905	0.05130865
82	0x3dc729de	0.097247824
83	0x3c4a9297	0.012364051
84	0xbce03c19	-0.027372407
85	0x3d08131c	0.03322135
86	0xbd298ac9	-0.04139212
87	0xbb66d5d3	-0.0035222664
88	0xbb49729a	-0.0030738474
89	0xbcb29ca5	-0.02180321
90	0xbda61e39	-0.08111233
91	0xbe3740c6	-0.17895803
92	0x3d1b56df	0.037924644
93	0x3d028632	0.03186626
94	0xbd5ea26d	-0.05435412
95	0xbd134461	-0.035953883
96	0xbe2619ca	-0.16220775
97	0x3d591282	0.052996166
98	0x3d141e03	0.036161434
99	0x3d3825f8	0.044958085
100	0x3dca1c24	0.09868649
101	0xbdb447c2	-0.08802749
102	0xba5e3e24	-0.00084778876
103	0x3b8f7e4f	0.004379071
104	0x3bfaf072	0.007658058
105	0xbdba990f	-0.09111225
106	0x3d78bbe6	0.06072607
107	0xbd14699c	-0.03623353
108	0xbe03e65c	-0.12880844
109	0x3ae118b5	0.0017173501
110	0x3d4cb268	0.04997483
111	0xbdb97dc2	-0.090571895
112	0xbdb05451	-0.08609832
113	0x3d1de1d4	0.038545445
114	0x3c039de5	0.00803325
115	0xbc46a519	-0.012124323
116	0xbdc8ac48	-0.09798485
117	0xbd4d4ffe	-0.050125115
118	0xbc98dd60	-0.018660247
119	0xbd701dbc	-0.058622107
120	0xbd110363	-0.03540362
121	0x3db05970	0.08610809
122	0x3d9d1c07	0.076713614
123	0x3d85c32e	0.06531368
124	0x3d88ec1e	0.06685661
125	0xbdbfcdd5	-0.09365431
126	0xbd9589ab	-0.07301649
127	0xbd973cb6	-0.073846266
128	0x3d481a05	0.04885294
129	0x3d7dceef	0.061964925
130	0xbe072455	-0.13197453
131	0x3e2f6453	0.17128114
132	0x3c51038d	0.012757194
133	0xbde5ccd0	-0.112207055
134	0xbd45e2c4	-0.048311964
135	0x3de52e96	0.11190526
136	0xbcff4ae6	-0.031163644
137	0xbe1b8118	-0.15185964
138	0xbdf95df0	-0.1217612
139	0xbe173c56	-0.1476911
140	0xbb8df8d4	-0.004332641
141	0xbd180a72	-0.037119336
142	0x3c8cdc45	0.017194876
143	0x3cbc635c	0.022996597
144	0xbcd8de13	-0.02647308
145	0xbd39ec59	-0.045391414
146	0x3d9dd183	0.07705977
147	0xbbe5fac7	-0.0070184204
148	0x3cca029f	0.024659453
149	0x3d108750	0.035285294
150	0x3cf002e2	0.02929825
151	0xbd42cc7c	-0.047558293
152	0x3cf0c30d	0.029389882
153	0xbd6d5bef	-0.057949003
154	0xbd9d8c85	-0.076928176
155	0xbdc0835b	-0.09400054
156	0x3c9450b9	0.018104898
157	0xbd040d2a	-0.032239117
158	0x3d02ca6b	0.031931322
159	0x3cac5e27	0.02104099
160	0xbd27f6ae	-0.041006736
161	0xbd2dab23	-0.042399537
162	0x3da1b7e5	0.07896403
163	0xbd20f248	-0.039293557
164	0xbc88b88f	-0.016689567
165	0x3ce3fb8f	0.027829913
166	0xbd2c4e96	-0.042067133
167	0x3d7b4297	0.061342802
168	0x3d095747	0.0335305
169	0xbd5cf15a	-0.05394111
170	0xbc74e075	-0.014946093
171	0xbc535758	-0.012899242
172	0xbd1dccf6	-0.038525544
173	0x3b39f776	0.0028376258
174	0x3d5b563d	0.05354904
175	0x3d3af3e0	0.045642734
176	0x3d7391fa	0.059465386
177	0x3c94327c	0.01809048
178	0x3c939424	0.018014975
179	0xbcf99f84	-0.03047157
180	0xbd8290a5	-0.06375245
181	0x3d0b3d33	0.03399391
182	0xbd354c6a	-0.044262327
183	0xbcc256f3	-0.023723101
184	0x3d7890cc	0.060684964
185	0x3c85dc5a	0.016340423
186	0x3c8f719a	0.017510224
187	0xbd478ed2	-0.04872019
188	0xbd7cc3a0	-0.06171
189	0x3d7ef037	0.062240805
190	0x3c88a331	0.016679378
191	0xbd252bbf	-0.040324923
192	0xbbf48107	-0.0074616703
193	0x3c6f5e17	0.014609835
194	0xbcd4eb30	-0.025991052
195	0xbd39bd5d	-0.045346607
196	0xbc68c442	-0.014206948
197	0xbe13ab01	-0.14420702
198	0xbc239670	-0.009984598
199	0x3d1b5834	0.037925914
200	0x3bc0a321	0.0058788215
201	0xbd60004a	-0.054687776
202	0x3d8192a7	0.063268
203	0x3ca45451	0.020059736
204	0xbcf10983	-0.02942348
205	0x3cf90cb3	0.030401563
206	0xbc51850f	-0.012788071
207	0xbc6a2a68	-0.014292337
208	0x3c0218ba	0.007940466
209	0xbd6eab31	-0.05826873
210	0x3d147274	0.036241964
211	0xbc9727a7	-0.018451525
212	0x3db202dd	0.086919524
213	0xbc693db2	-0.014235901
214	0xbd5f946b	-0.0545849
215	0xbc71884f	-0.014741971
216	0xbc9a3cd3	-0.018827831
217	0xbb665b9a	-0.0035149814
218	0x3d6ff3f8	0.058582276
219	0x3cf530bb	0.029930463
220	0xbcc5c292	-0.02414063
221	0x3d57e1df	0.05270564
222	0x3d87a607	0.06623464
223	0xbd25ff4a	-0.040526666
224	0xbce14858	-0.027500317
225	0x3ca2c847	0.01987089
226	0xbda80432	-0.08203925
227	0xbd89a460	-0.06720805
228	0xbd23d2ab	-0.03999583
229	0x3dc48235	0.095951475
230	0xbdc660bb	-0.096864186
231	0xbdc06ceb	-0.093957745
232	0x3d5cf931	0.053948585
233	0xbe3d5fe4	-0.1849361
234	0xbe701f81	-0.23449518
235	0xbd121ec2	-0.035673864
236	0xbc8d29aa	-0.017231781
237	0x3c867148	0.016411439
238	0xbd778ced	-0.06043713
239	0x3c3d99b5	0.011572291
240	0xbc6df721	-0.014524252
241	0x3d864b19	0.065572925
242	0x3d3476fc	0.044058785
243	0xbd1e4c4a	-0.038646974
244	0x3cb5c7ff	0.022190092
245	0x3d34d4dc	0.04414831
246	0x3bb6eca0	0.005582407
247	0xbd37a0fb	-0.044831257
248	0xbb5333d1	-0.003222693
249	0x3d0cedd4	0.034406498
250	0xbd568098	-0.05236873
251	0x3c9c31a8	0.019066647
252	0xbe0123c7	-0.12611304
253	0xbcfffad5	-0.031247536
254	0xbcd86bef	-0.026418654
255	0x3ddd0574	0.10792056

arr_3 f4 [32]
0	0xbd1b427e	-0.03790521
1	0xbc918966	-0.017765712
2	0xbd3b9a52	-0.04580147
3	0xbd27f723	-0.041007172
4	0xbcd8599f	-0.026409922
5	0xbb847415	-0.0040421584
6	0xbd89924c	-0.06717357
7	0xbc89156e	-0.016733851
8	0xbc874801	-0.016513826
9	0xbd0da312	-0.034579344
10	0x3c67a6e4	0.014138911
11	0x3d3f5409	0.046711
12	0xbe181f24	-0.14855629
13	0xbc8eb4f9	-0.017420279
14	0x3d3e3f89	0.04644731
15	0x3d126fa8	0.035751015
16	0x3d86b7b0	0.06578004
17	0xbd0a504a	-0.033767976
18	0xbcc91e56	-0.024550598
19	0xbd5a736d	-0.053332735
20	0xbd0707c2	-0.032966383
21	0xbc3164bd	-0.0108272405
22	0xbd9e8009	-0.077392645
23	0xbd1e0b18	-0.0385848
24	0xbd262d53	-0.04057057
25	0xbce2095c	-0.027592354
26	0xbd0f60d9	-0.03500447
27	0x3d0657f5	0.032798726
28	0xbe203d63	-0.15648417
29	0x3cfb1dc5	0.030653844
30	0xbe02061d	-0.12697645
31	0xbd603c45	-0.054744978

arr_4 f4 [32, 32]
0	0xbdf19fed	-0.117980815
1	0xbc93bccf	-0.018034367
2	0xbe0cbe2b	-0.13744418
3	0xbe05b67d	-0.13057895
4	0xbe586165	-0.21130903
5	0xbe2bd946	-0.16782102
6	0x3e37eb36	0.1796082
7	0x3eb141b0	0.34620428
8	0xbe747f7f	-0.23876761
9	0x3cfb9852	0.03071228
10	0x3dfda9cc	0.12385902
11	0x3e337e87	0.17528735
12	0x3e3d4fb1	0.18487431
13	0xbe177d08	-0.1479379
14	0xbdacbad1	-0.0843407
15	0xbe1c273d	-0.15249343
16	0xbd7afef6	-0.061278306
17	0xbe1399ee	-0.14414188
18	0xbdceb888	-0.1009379
19	0xbe7ae26a	-0.24500433
20	0xbe338554	-0.1753133
21	0xbc48dce1	-0.012259693
22	0xbe3ade49	-0.18248858
23	0xbe814ae0	-0.25252438
24	0xbcaba80f	-0.02095416
25	0xbe48b40b	-0.19599931
26	0x3de5fada	0.11229487
27	0x3e26965e	0.16268298
28	0xbaf8f1e8	-0.0018992992
29	0xbc98d47b	-0.018656006
30	0x3c885e32	0.016646478
31	0x3dde3cb5	0.10851423
32	0x3cfa5ee8	0.030562833
33	0xbe5713a1	-0.21003582
34	0xbe0b86f3	-0.13625698
35	0xbe835bff	-0.25656125
36	0x3c5f75bf	0.013638913
37	0xbd9b9847	-0.07597404
38	0x3dd5e54a	0.10444124
39	0x3e0c3b84	0.13694578
40	0x3e8d6fb3	0.27624282
41	0x3e2632df	0.16230343
42	0x3c825407	0.015909208
43	0x3d8672eb	0.065648876
44	0x3e1b650d	0.15175267
45	0x3ea905dc	0.33012283
46	0xbe63b4ae	-0.22236893
47	0x3aab029f	0.0013047046
48	0xbe0b4c38	-0.13603294
49	0xbd2e6995	-0.04258116
50	0x3ea0198e	0.31269497
51	0x3d14cfc1	0.036330942
52	0x3dfb3752	0.12266411
53	0xbd634df4	-0.055494264
54	0x3e0d380d	0.13790913
55	0xbeabd9ad	-0.3356451
56	0x3d5adedf	0.053435203
57	0x3e0a4a58	0.13504922
58	0xbc8c451a	-0.017122794
59	0xbe40c6d1	-0.18825842
60	0xbe41bfdb	-0.18920843
61	0x3d92b9d7	0.071643524
62	0x3e621111	0.22076823
63	0xbe466e24	-0.19377953
64	0x3e982936	0.2971894
65	0xbdb9c0a7	-0.09069949
66	0xbe326fbc	-0.17425436
67	0x3e67783b	0.22604458
68	0xbe8b0034	-0.27148592
69	0x3d4c481f	0.049873468
70	0xbc977ee0	-0.018493116
71	0xbceca8b3	-0.028889036
72	0x3e25d53d	0.16194625
73	0xbea89dd4	-0.32932913
74	0xbe8ce711	-0.2752004
75	0xbd8466ba	-0.06464906
76	0x3de2625b	0.11053916
77	0x3e7fb6ac	0.24972028
78	0xbe6076df	-0.21920346
79	0xbc3cc6ce	-0.011522008
80	0xbe933da3	-0.28757963
81	0x3dec4c6f	0.11538016
82	0x3e8866b9	0.2664087
83	0x3e59ccb6	0.21269497
84	0xbde539d5	-0.11192671
85	0x3e86db6c	0.2633928
86	0x3e0e35dc	0.13887733
87	0xbe90f26a	-0.28309947
88	0x3e1a5e19	0.15074958
89	0xbc2aee81	-0.01043284
90	0x3de00ff3	0.10940542
91	0xbe90b47f	-0.28262708
92	0xbe2dd174	-0.16974431
93	0x3e449b0f	0.19199775
94	0x3e3c6171	0.18396546
95	0xbd8f3eac	-0.069943756
96	0xbec32c23	-0.3811961
97	0xbd1ada9f	-0.03780615
98	0xbe6bdcd3	-0.23033457
99	0x3e89adf3	0.26890525
100	0x3d956ecf	0.07296526
101	0xbc93a6ab	-0.01802381
102	0xbc83da81	-0.016095402
103	0xbd4626d1	-0.048376862
104	0xbc36e4b9	-0.01116293
105	0xbe602f69	-0.21893086
106	0x3e553b1d	0.20823331
107	0x3d9ecf6b	0.077544056
108	0xbc5baf9b	-0.013408567
109	0x3d84712a	0.06466897
110	0x3d608cc4	0.054821745
111	0xbcfa60f5	-0.03056381
112	0xbc728ba2	-0.014803799
113	0x3e632273	0.2218111
114	0x3db0e237	0.08636897
115	0xbe07dbd2	-0.13267449
116	0xbdd5abd5	-0.10433165
117	0xbd5db4e5	-0.054127593
118	0xbc9ad187	-0.018898739
119	0xbd22ec2b	-0.03977601
120	0x3dcd6dfa	0.10030742
121	0xbaac5ef2	-0.0013150855
122	0x3cf581d0	0.029969126
123	0xbe3da9e0	-0.18521833
124	0xbdfc890e	-0.123308286
125	0xbe0f960b	-0.1402208
126	0x3c4c1ecc	0.012458514
127	0xbdf471fc	-0.11935803
128	0xbdc5a205	-0.096500434
129	0x3dc64f19	0.096830554
130	0xbdb1ccdc	-0.08681652
131	0x3d90698f	0.07051384
132	0x3d1e4538	0.03864023
133	0x3e33775e	0.17526004
134	0x3c94b16f	0.018151013
135	0x3e1c115a	0.15240994
136	0xbddec903	-0.10878184
137	0x3d3b5e82	0.045744427
138	0xbe58cefd	-0.2117271
139	0x3e0b3915	0.13595994
140	0x3c48f3ee	0.012265189
141	0xbebb5fa8	-0.36596417
142	0x3e83cd7a	0.25742704
143	0xbcd91692	-0.02650002
144	0x3deffd93	0.11718287
145	0x3e0f3dd6	0.13988432
146	0x3d3f5bd3	0.04671843
147	0x3e5b1584	0.21394926
148	0xbdb6e647	-0.08930641
149	0x3dfb90fe	0.122835144
150	0x3e04dbd4	0.12974483
151	0xbe8594ab	-0.26089987
152	0xbd5e5697	-0.054281797
153	0x3d957fc2	0.072997585
154	0x3df36e7d	0.11886308
155	0xbe6f5bff	-0.23374937
156	0x3d984a2b	0.074360214
157	0x3de43771	0.11143387
158	0x3e21d3ee	0.15803501
159	0x3cc95395	0.024575988
160	0xbde085b8	-0.10963005
161	0x3d7fc87c	0.062447056
162	0xbc0c10f8	-0.008548968
163	0x3d5dd78d	0.054160643
164	0xbe70430b	-0.23463075
165	0x3e103b46	0.14085111
166	0x3d376fe0	0.044784427
167	0xbe5a5769	-0.21322407
168	0xbe92fbab	-0.28707632
169	0x3e7bbcd3	0.2458375
170	0xbe06f3ff	-0.13179015
171	0x3ea29ed5	0.31761804
172	0xbe32d4a1	-0.17463924
173	0xbbb19c70	-0.00542026
174	0xbe2fd707	-0.1717187
175	0x3dc4c9d9	0.09608812
176	0x3e846557	0.25858566
177	0xbe884950	-0.26618433
178	0xbe84cfdf	-0.25939843
179	0x3e67d1af	0.22638582
180	0x3d80cbc2	0.06288864
181	0xbdc154cd	-0.094400026
182	0xbca044e5	-0.019564101
183	0xbe24d0c0	-0.16095257
184	0x3e833cf3	0.25632438
185	0x3d1e3e2d	0.038633514
186	0x3e9ce8b4	0.30646288
187	0x3ded5b4e	0.115896806
188	0xbe117ff5	-0.14208968
189	0xbe14d75c	-0.14535278
190	0x3e417f1f	0.18896149
191	0x3e1d4f00	0.15362167
192	0x3ea1604c	0.3151878
193	0xbd98cdc1	-0.074611194
194	0xbd521728	-0.051291615
195	0xbe085558	-0.13313806
196	0x3d51eea5	0.05125298
197	0xbeb47fc9	-0.35253742
198	0xbe8f2ad1	-0.27962354
199	0x3bebb6c2	0.0071934173
200	0x3dad68de	0.084672675
201	0x3e0f5d66	0.14000472
202	0xbe8300d1	-0.2558656
203	0xbe4115ba	-0.18855944
204	0xbc433577	-0.0119146025
205	0xbdba6365	-0.09100989
206	0x3dd1cc80	0.102440834
207	0xbea2e8b4	-0.31818163
208	0xbe754f9f	-0.23956154
209	0x3df50e10	0.11965573
210	0x3ec97ee5	0.39354625
211	0xbe38b885	-0.18039139
212	0xbe94f620	-0.29094028
213	0xbd86a65c	-0.06574699
214	0x3e64f57b	0.22359268
215	0x3e6b140a	0.22956863
216	0xbd4e12ad	-0.05031078
217	0xbe1383a8	-0.14405692
218	0xbe6d5bd3	-0.2317956
219	0x3e131fe4	0.14367634
220	0xbdd074d5	-0.10178534
221	0xbe730eae	-0.23736069
222	0xbe8f197e	-0.27949136
223	0xbe7315c6	-0.23738775
224	0x3dd60776	0.10450642
225	0xbe0066de	-0.1253924
226	0xbe8ff5e1	-0.28117278
227	0x3e6f5f3f	0.23376177
228	0xbe5b4687	-0.21413623
229	0xbe175d6e	-0.14781734
230	0xbe1d8e20	-0.15386248
231	0xbe234ec4	-0.15948015
232	0x3e3b0aa9	0.18265785
233	0x3d5c7d90	0.053830683
234	0xbe9758f5	-0.29560056
235	0x3d005952	0.031335182
236	0x3d2fc71b	0.04291449
237	0x3d56d8fb	0.052453022
238	0x3e53ade9	0.2067181
239	0x3e3b052f	0.18263696
240	0x3d0003bb	0.031253558
241	0xbca34f5a	-0.019935299
242	0xbe73909f	-0.23785637
243	0x3e0e71d6	0.13910612
244	0xbe12660d	-0.14296742
245	0x3d061625	0.032735962
246	0x3a491808	0.00076711224
247	0x3df0430f	0.117315404
248	0xbd965bf1	-0.07341755
249	0x3dbb3ea4	0.09142807
250	0xbc1be16b	-0.009514193
251	0xbe831ecf	-0.25609443
252	0x3e7d6daa	0.24748865
253	0xbe97916e	-0.29603142
254	0x3c3ff642	0.011716427
255	0xbe17ea69	-0.14835514

arr_5 f4 [32]
0	0xbd1c1a5c	-0.038111076
1	0x3bb6a135	0.0055734166
2	0xbd6943f5	-0.056949575
3	0x3d39271f	0.045203324
4	0x3d81f7f9	0.06346125
5	0xbcb60dd1	-0.022223385
6	0xbceff6f8	-0.029292569
7	0xbc3498df	-0.011022775
8	0x3cc1baaa	0.023648579
9	0xbc62fa83	-0.013853672
10	0xbbfbc713	-0.0076836436
11	0xbd10e242	-0.035372026
12	0xbcf5d656	-0.03000943
13	0xbc84d05b	-0.016212633
14	0x3d043bcd	0.032283593
15	0xbcca4044	-0.024688847
16	0xbd1448e8	-0.03620234
17	0x3c9f4a5e	0.01944464
18	0x3d4301ed	0.04760926
19	0x3caa1ce2	0.020765726
20	0xbca664a3	-0.02031166
21	0xbca2cfd3	-0.019874489
22	0x3d4125a4	0.047155038
23	0x3cb045c1	0.021517636
24	0x3bdb7407	0.006697181
25	0xbcf2cb74	-0.02963803
26	0xbb931350	-0.004488386
27	0x3d149c1e	0.036281697
28	0x3c0a9ffd	0.008460996
29	0xbc740b7d	-0.014895317
30	0xbc4d8bba	-0.01254552
31	0x3d9cc9af	0.076556556

arr_6 f4 [32, 32]
0	0xbe1ba0ed	-0.15198107
1	0xbe1dfaa8	-0.15427649
2	0x3d680062	0.05664099
3	0x3cef0b28	0.029180124
4	0x3e06444b	0.13111989
5	0xbe65387d	-0.2238483
6	0x3dce253b	0.10065695
7	0x3db28f4c	0.08718738
8	0xbd79bc27	-0.06097045
9	0x3dc8f98b	0.098132215
10	0xbd5037ef	-0.050834592
11	0xbe5ae0a8	-0.21374762
12	0xbe02320a	-0.12714401
13	0xbe0962a4	-0.13416535
14	0x3dfd3ddf	0.123653166
15	0xbe6f8b4c	-0.23392981
16	0xbd67b6f8	-0.056570977
17	0x3d915933	0.070970915
18	0xbeb1adb6	-0.34702843
19	0xbe92cc78	-0.28671622
20	0x3eb39cc9	0.35080555
21	0x3e12887a	0.14309874
22	0x3e1adafb	0.15122597
23	0xbeb2bbe0	-0.34908962
24	0xbdab8583	-0.08375075
25	0x3d9aa8c6	0.07551722
26	0x3e85c320	0.2612543
27	0xbd545c88	-0.051846057
28	0x3c7b367f	0.015332817
29	0xbe986dff	-0.2977142
30	0xbd280aeb	-0.041026037
31	0xbe1099e9	-0.14121212
32	0x3e64dd65	0.2235008
33	0xbe8a187a	-0.269718
34	0x3e306d4a	0.1722919
35	0x3dbaebee	0.09127031
36	0xbe8af928	-0.27143216
37	0x3e1b47ad	0.15164061
38	0x3e1af4a6	0.15132388
39	0x3ddd1383	0.10794737
40	0xbcef9f7c	-0.029250853
41	0x3e4e5928	0.20151198
42	0x3e54208d	0.20715542
43	0xbc854e0c	-0.016272567
44	0x3c883b3c	0.016629808
45	0x3cb8c7aa	0.022556145
46	0x3daea535	0.085276045
47	0xbdb3ca79	-0.08778853
48	0xbdff32a6	-0.12460832
49	0xbe26c39a	-0.16285554
50	0x3b2ae05a	0.0026073665
51	0x3dd8d034	0.105865866
52	0xbe0a0694	-0.13479072
53	0x3e7ce28e	0.24695799
54	0xbea123f7	-0.31472751
55	0xbc27e9be	-0.0102486
56	0xbe3af3c1	-0.18257047
57	0xbd65d0e4	-0.056107417
58	0x3e6d5f6d	0.23180933
59	0xbd091ab2	-0.033472724
60	0xbd68d303	-0.05684186
61	0xbcc2a493	-0.023760116
62	0xbe21c21a	-0.157967
63	0xbe8e41b1	-0.27784494
64	0x3dbc550b	0.09195908
65	0x3d840b0d	0.0644742
66	0x3ec74a6b	0.38923964
67	0xbebc81d5	-0.36817804
68	0x3e3afcf1	0.18260552
69	0xbec5dd3b	-0.38645348
70	0xbe2fc2e2	-0.17164186
71	0x3e547ddc	0.20751137
72	0xbe014dac	-0.12627286
73	0x3e9552a6	0.29164618
74	0xbcaaff70	-0.020873755
75	0xbe5a9390	-0.21345353
76	0x3e8764b8	0.2644403
77	0xbe25793e	-0.16159531
78	0x3d329ebe	0.04360842
79	0xbda484e0	-0.080331564
80	0xbdfa6813	-0.12226882
81	0x3e2184cd	0.15773316
82	0xbe6987ab	-0.2280566
83	0x3d1cdca1	0.038296346
84	0xbe655b40	-0.2239809
85	0x3e45ad08	0.19304287
86	0xbdf743a9	-0.12073452
87	0xbe24cb2b	-0.16093127
88	0x3e9be998	0.30451655
89	0xbe6595a0	-0.22420359
90	0xbeabb5b0	-0.33537054
91	0xbe6e9c61	-0.23301841
92	0xbe4a0194	-0.19727165
93	0x3e8a7002	0.2703858
94	0xbc22b103	-0.009929898
95	0x3e2e8e4a	0.17046466
96	0x3e3f89e8	0.18704951
97	0x3d77546d	0.06038325
98	0xbd9e4c71	-0.07729424
99	0x3e356bff	0.17716978
100	0xbe31714e	-0.17328379
101	0x3e2ba384	0.16761595
102	0x3e29c478	0.16578853
103	0x3e87ff8d	0.26562157
104	0x3e84be4d	0.25926438
105	0xbdafc395	-0.08582226
106	0xbea1c91f	-0.31598756
107	0x3ccc1137	0.024910552
108	0xbe1bab37	-0.15202032
109	0x3e800735	0.250055
110	0xbdbdb46e	-0.0926293
111	0x3dd7f03c	0.10543868
112	0x3bd5bd2b	0.0065227947
113	0xbe73cc8d	-0.23808499
114	0x3e8a8abc	0.2705897
115	0xbbb604c9	-0.0055547697
116	0x3db3a020	0.08770776
117	0xbe2e355b	-0.17012541
118	0x3c93f744	0.018062241
119	0x3d473ce9	0.048642073
120	0xbd2a84a1	-0.04163039
121	0xbe0f4847	-0.13992415
122	0xbd1e6d68	-0.038678557
123	0xbe085c83	-0.1331654
124	0x3c4260bc	0.011863884
125	0xbe70bc43	-0.23509316
126	0xbda2f42e	-0.0795673
127	0x3e89a9f4	0.26887476
128	0x3ea56606	0.323044
129	0xbe3bb98d	-0.18332501
130	0xbe8f9353	-0.28042087
131	0x3e450ff7	0.19244371
132	0xbe8f7d40	-0.28025246
133	0x3df66f7a	0.12032981
134	0x3dca7045	0.09884695
135	0xbe63596d	-0.22202082
136	0x3e51ab30	0.20475459
137	0xbe21ac9e	-0.15788504
138	0xbd30f2fd	-0.04320048
139	0xbe53f0f4	-0.20697385
140	0x3e12a5fb	0.14321129
141	0x3c998823	0.018741673
142	0x3b4efbd5	0.003158321
143	0xbe85264b	-0.26005778
144	0x3d6bcee5	0.057570357
145	0xbeb92c80	-0.36166763
146	0xbe76fc13	-0.24119596
147	0xbe4d9211	-0.20075251
148	0x3d8e81c9	0.06958348
149	0xbe29c26d	-0.16578074
150	0x3ea0d9c6	0.31416148
151	0xbe370088	-0.17871296
152	0xbe6aff79	-0.22949018
153	0x3d20eab4	0.03928633
154	0x3e08b069	0.13348545
155	0xbe5bd897	-0.21469341
156	0x3e17070c	0.14748782
157	0xbe7bc837	-0.24588095
158	0xbe76dced	-0.24107714
159	0xbe70d373	-0.23518161
160	0xbe8b3357	-0.27187607
161	0xbe5570bc	-0.20843786
162	0x3d12ab39	0.035807822
163	0x3d8a2a71	0.06746376
164	0xbdf8daa2	-0.12151076
165	0x3c2339f1	0.009962545
166	0x3dd834a8	0.105569184
167	0xbd787d34	-0.060666278
168	0xbe4ac2bb	-0.19800846
169	0xbe7204f9	-0.2363471
170	0xbe52020f	-0.20508598
171	0xbea35f62	-0.3190871
172	0x3bee1df1	0.007266753
173	0x3e058341	0.1303835
174	0x3e2b5985	0.16733368
175	0x3e98931d	0.2979974
176	0xbd8c962b	-0.0686458
177	0x3de92b13	0.11385169
178	0xbc645a4f	-0.013937547
179	0xbdf2b3cf	-0.11850702
180	0xbe47096d	-0.1943719
181	0xbe689576	-0.22713265
182	0x3e62c572	0.22145632
183	0xbe03a802	-0.12857059
184	0x3e982bf9	0.29721048
185	0xbe629fd0	-0.22131276
186	0xbcf1731f	-0.02947384
187	0xbe51df11	-0.2049525
188	0xbdc85678	-0.097821176
189	0xbe354486	-0.17701921
190	0x3d038a90	0.032114565
191	0xbcd6f799	-0.02624111
192	0xbc15684a	-0.009119103
193	0x3e8ec426	0.27884024
194	0xbdd5a44b	-0.10431727
195	0x3e8d8058	0.2763698
196	0x3e810ec9	0.25206593
197	0x3e01b198	0.12665403
198	0x3e0963b4	0.1341694
199	0xbe66d86f	-0.225435
200	0x3eb7f8e7	0.35932085
201	0x3e7db78a	0.24777046
202	0x3e452fae	0.1925647
203	0x3eb5e1d8	0.35523868
204	0x3da5f77f	0.08103847
205	0xbe1ab618	-0.15108526
206	0xbe211564	-0.15730816
207	0xbd6dad68	-0.0580267
208	0xbe919f4c	-0.28441846
209	0xbda3a7f3	-0.07991018
210	0xbe7c16e0	-0.24618101
211	0x3e5ec51e	0.21754882
212	0x3e1ce6ea	0.15322462
213	0x3dc57212	0.09640898
214	0x3e05ff1d	0.13085599
215	0xbbe6d0c8	-0.0070439316
216	0x3e5bcaf7	0.21464144
217	0xbe3b01bf	-0.18262385
218	0xbec5673e	-0.3855533
219	0xbc7d0cde	-0.015444962
220	0xbddc6461	-0.10761333
221	0xbea9d09d	-0.33166972
222	0xbe387e13	-0.18016843
223	0x3e9beeb2	0.30455548
224	0xbe6d2e8d	-0.23162289
225	0x3e5ed967	0.2176262
226	0x3d395e19	0.045255754
227	0x3df46720	0.11933732
228	0x3e9cafa2	0.30602747
229	0xbe95c6c1	-0.292532
230	0xbce3948c	-0.027780794
231	0xbd1263f7	-0.035739865
232	0x3e15d374	0.14631444
233	0x3e44887b	0.19192688
234	0x3d249bb1	0.04018754
235	0x3e4450b9	0.19171418
236	0x3edcf3f4	0.4315487
237	0x3de2e9fb	0.110797845
238	0xbca0341c	-0.019556098
239	0x3e4906e0	0.19631529
240	0xbdc76d7a	-0.09737678
241	0x3e1e701a	0.15472451
242	0xbe21fc9c	-0.15819019
243	0xbc859d3f	-0.016310332
244	0xbe457acb	-0.19285123
245	0x3e0db80f	0.13839744
246	0xbe507291	-0.20356204
247	0xbd047f5d	-0.032348026
248	0xbd7cdfb0	-0.061736763
249	0xbe42c5ef	-0.19020818
250	0x3e572152	0.21008804
251	0xbd4f7fcb	-0.050658982
252	0xbbd8166c	-0.00659447
253	0x3d6af109	0.057358775
254	0x3dec8612	0.115490094
255	0x3dcf0fbe	0.101104245

arr_7 f4 [32]
0	0xbd11ad9a	-0.03556595
1	0x3b16b719	0.0022997318
2	0x3d4dd38b	0.05025057
3	0x3ca02dfa	0.019553173
4	0xbcc345ff	-0.023837088
5	0xbc1cde1b	-0.009574438
6	0x3c2ce759	0.010553204
7	0xbc3b0a52	-0.011416035
8	0x3c7d4d9e	0.0154604
9	0xbc49acb7	-0.012309245
10	0xbae104ff	-0.0017167627
11	0xbc25f469	-0.010129073
12	0xbc2067a8	-0.009790339
13	0xbc958b7b	-0.018254986
14	0x3b02f5c9	0.0019982925
15	0xbaf06f6b	-0.0018343752
16	0x3ba7ac9f	0.0051170136
17	0xbc9ca048	-0.019119397
18	0x3d430156	0.047608696
19	0x3b1b8e74	0.0023736032
20	0x3d85646c	0.065132946
21	0x3cc70f50	0.024299294
22	0x3c12a1c6	0.008949703
23	0xbd25903f	-0.040420767
24	0xbbe62512	-0.007023462
25	0x3c4e1e66	0.01258049
26	0x3c163cad	0.00916974
27	0xbd7020d2	-0.05862505
28	0x3d6dff26	0.058104657
29	0xbca0a482	-0.019609693
30	0x3b8b060c	0.004242664
31	0xbcdbfeec	-0.026854955

arr_8 f4 [2, 32]
0	0x3df0c4bd	0.11756275
1	0x3da71eb4	0.08160153
2	0xbeaf6119	-0.34253767
3	0x3e5939b0	0.21213412
4	0xbc6bf72a	-0.01440219
5	0x3ea8c712	0.3296438
6	0xbe232ad7	-0.15934311
7	0x3cb427b2	0.021991584
8	0xbe40b19d	-0.18817754
9	0xbe1bfa8b	-0.15232293
10	0x3e2a579a	0.1663498
11	0x3d35bcd6	0.04436954
12	0xbecc40ee	-0.39893287
13	0x3ebb490a	0.36579162
14	0xbe4fbd08	-0.20286953
15	0xbe593e32	-0.21215132
16	0xbb23a67c	-0.0024971059
17	0xbeea4ef1	-0.45763353
18	0xbeb6f37a	-0.35732633
19	0x3ec45620	0.38346958
20	0xba9ef893	-0.0012128524
21	0xbda1fc21	-0.07909418
22	0xbdec26b5	-0.1153082
23	0x3ee20fe4	0.4415275
24	0xbd4d5279	-0.05012748
25	0x3efa9907	0.48944876
26	0xbec48e63	-0.38389882
27	0x3ec48464	0.38382256
28	0xbe31a915	-0.17349656
29	0xbe8dedd8	-0.27720523
30	0x3e8e2e61	0.2776976
31	0x3da5381b	0.08067342
32	0xbeaf68d6	-0.3425967
33	0x3e2dc6ad	0.1697032
34	0x3e3ee933	0.18643646
35	0x3e0ef1e0	0.13959455
36	0x3ec55062	0.3853789
37	0x3ea78301	0.32717136
38	0xbd55492d	-0.05207174
39	0x3ebf9e98	0.37425685
40	0x3dfafd93	0.12255397
41	0x3e951617	0.29118416
42	0xbe4109f0	-0.18851447
43	0x3e9f0561	0.3105879
44	0xbe2931f3	-0.1652296
45	0x3e781354	0.24226123
46	0xbea1157b	-0.314617
47	0x3ea89496	0.32925862
48	0x3e1390e8	0.14410746
49	0xbd4467b0	-0.047950447
50	0xbdb7883f	-0.08961534
51	0x3e7e19fc	0.248146
52	0x3e8a0c3c	0.2696246
53	0xbe432d17	-0.19060169
54	0x3da47d0c	0.08031663
55	0x3eb8d0c9	0.3609679
56	0xbeb29d04	-0.34885418
57	0xbdcb9ad5	-0.09941641
58	0xbe2b6a4b	-0.16739766
59	0xbd673b1a	-0.056452848
60	0xbe849512	-0.25894982
61	0xbdcb36ff	-0.09922599
62	0x3e5486e4	0.20754582
63	0xbe706da7	-0.23479329

arr_9 f4 [32]
0	0xbd11ada2	-0.03556598
1	0x3b16b6c7	0.0022997127
2	0x3d4dd38c	0.050250575
3	0x3ca02e06	0.019553196
4	0xbcc34605	-0.023837099
5	0xbc1cde14	-0.009574432
6	0x3c2ce768	0.010553218
7	0xbc3b0a22	-0.01141599
8	0x3c7d4d8f	0.015460386
9	0xbc49ace2	-0.012309285
10	0xbae1054c	-0.0017167716
11	0xbc25f474	-0.010129083
12	0xbc2067b8	-0.0097903535
13	0xbc958b7e	-0.018254992
14	0x3b02f517	0.001998251
15	0xbaf06f0e	-0.0018343644
16	0x3ba7ac76	0.0051169945
17	0xbc9ca027	-0.019119335
18	0x3d430164	0.047608748
19	0x3b1b8e51	0.002373595
20	0x3d85646c	0.065132946
21	0x3cc70f46	0.024299275
22	0x3c12a1cb	0.008949707
23	0xbd25903a	-0.04042075
24	0xbbe6250e	-0.00702346
25	0x3c4e1e6a	0.012580493
26	0x3c163caa	0.009169737
27	0xbd7020d3	-0.058625054
28	0x3d6dff16	0.058104597
29	0xbca0a492	-0.019609723
30	0x3b8b05e9	0.004242648
31	0xbcdbfeea	-0.026854951

arr_10 f4 [32, 32]
0	0xbdb06036	-0.08612101
1	0x3da5995a	0.0808589
2	0xbdc27b57	-0.094961815
3	0xbe0297eb	-0.12753265
4	0x3e1230a7	0.14276372
5	0x3d98b7e4	0.07456949
6	0xbe0985a6	-0.13429889
7	0xbd385c32	-0.0450098
8	0x3e6429fb	0.2228164
9	0xbe8bf198	-0.2733276
10	0xbd848153	-0.06469979
11	0x3cae16ec	0.021251164
12	0x3d1d7cf4	0.038449243
13	0xbd2ddd58	-0.042447418
14	0x3e595932	0.21225432
15	0x3ded26f6	0.11579697
16	0xbd907209	-0.070530005
17	0x3ca4d5e7	0.020121528
18	0xbe315b2a	-0.17319933
19	0xbe2e4090	-0.17016816
20	0x3dec8fdf	0.11550879
21	0x3c9d1114	0.019173183
22	0xbe0db02a	-0.13836733
23	0xbe15b63b	-0.14620297
24	0xbd24c8f8	-0.04023072
25	0x3e8b7981	0.27241138
26	0x3e2e6cb7	0.17033659
27	0x3e3696fa	0.1783103
28	0x3d70f35c	0.058825836
29	0x3e70138c	0.23444957
30	0x3e5324ae	0.20619461
31	0x3d0a8b15	0.033824045
32	0x3eb05808	0.34442163
33	0x3d2201cc	0.039552495
34	0xbd1d4bd9	-0.038402412
35	0x3d0494f6	0.032368623
36	0xbd5aa132	-0.053376384
37	0xbdc87ec7	-0.09789806
38	0xbe44bdfe	-0.19213101
39	0x3cb07916	0.021542113
40	0xbe285c65	-0.16441496
41	0x3d34aba1	0.04410899
42	0xbde7edb1	-0.11324633
43	0xbd84d790	-0.06486428
44	0xbda7001f	-0.0815432
45	0xbd19a5bf	-0.037511583
46	0xbde2055e	-0.1103618
47	0xbe21905a	-0.15777722
48	0x3d9ee722	0.07758929
49	0x3dacb788	0.08433443
50	0xbe350bbc	-0.17680258
51	0xbe00bd20	-0.12572145
52	0xbe2c877a	-0.16848555
53	0x3d0504d2	0.0324753
54	0x3bd73787	0.0065678987
55	0xbe61015c	-0.21973175
56	0x3d8d2592	0.068919316
57	0xbe9871d4	-0.29774344
58	0x3d869b34	0.065725714
59	0x3d992812	0.07478346
60	0x3e1c7ca7	0.15281926
61	0x3e289798	0.16464078
62	0x3e1c546b	0.15266578
63	0x3df17122	0.117891565
64	0xbdd1ad0f	-0.102380864
65	0x3e6d15d9	0.23152865
66	0xbe148a7e	-0.14505956
67	0x3e4b4abd	0.19852729
68	0xbe46eaf0	-0.19425559
69	0x3cf8e40e	0.030382182
70	0x3e860efb	0.26183304
71	0xbe358368	-0.17725909
72	0x3e5a9a47	0.21347915
73	0xbe1b6a52	-0.15177277
74	0xbdfe6109	-0.12420852
75	0xbdc8f093	-0.09811511
76	0xbd87c321	-0.06629015
77	0x3cbaa043	0.022781497
78	0xbda860b0	-0.08221567
79	0x3d0d6cd7	0.034527626
80	0xbd805184	-0.06265548
81	0x3e86161f	0.26188752
82	0xbd6e6b02	-0.05820752
83	0xbe01278e	-0.12612745
84	0x3ed9ed5d	0.42563906
85	0x3d4c08b4	0.049812987
86	0xbdcffe1e	-0.10155891
87	0x3da4cc44	0.08046773
88	0x3e2b0b7b	0.16703598
89	0x3da9559b	0.08268281
90	0xbd142a65	-0.036173243
91	0xbd4c6377	-0.049899545
92	0x3e89a3c7	0.26882765
93	0x3dde1e23	0.10845592
94	0x3e854df1	0.26036027
95	0x3e41462e	0.18874428
96	0xbd3598b0	-0.044335067
97	0xbe6f3f97	-0.23364101
98	0xbe988161	-0.29786208
99	0xbea519be	-0.32246202
100	0xbd8d3a85	-0.06895927
101	0xbe59d3e0	-0.2127223
102	0x3d111d8a	0.03542856
103	0x3e920b02	0.28524023
104	0xbaed62e6	-0.0018111139
105	0xbdc24226	-0.09485273
106	0x3f0b255f	0.543539
107	0x3daeeabe	0.08540867
108	0x3edbe2c1	0.42946437
109	0x3e2852ee	0.16437885
110	0x3ccecc28	0.025243834
111	0x3ddcd358	0.10782498
112	0x3da7e179	0.08197302
113	0xbc1c7617	-0.009549639
114	0x3e15ad7d	0.14616962
115	0x3eabc16e	0.33546013
116	0x3ba2bcf8	0.0049663745
117	0x3cc81993	0.024426257
118	0x3bacd20a	0.005274062
119	0xbce880f7	-0.028381808
120	0x3dfd4ab2	0.123677626
121	0xbde72865	-0.112870015
122	0x3e5aa619	0.21352424
123	0x3e8ec86b	0.27887282
124	0x3e59f348	0.2128421
125	0x3e2559e0	0.16147566
126	0x3da66c52	0.08126129
127	0x3d3dd54f	0.046346005
128	0x3e12148e	0.14265653
129	0x3d02d1d9	0.031938408
130	0x3e2c13e8	0.16804469
131	0xbdc9c85b	-0.09852668
132	0xbe0b32c0	-0.13593578
133	0x3d370415	0.044681627
134	0x3df5c18e	0.11999808
135	0xbcb5ca0f	-0.022191076
136	0x3d67c567	0.056584742
137	0x3cfe5186	0.031044733
138	0x3d88d964	0.06682089
139	0x3e86d1e7	0.26332018
140	0xbe9c2abe	-0.3050136
141	0xbdf1bfd4	-0.118041664
142	0x3b56d962	0.003278338
143	0xbeb112f8	-0.34584785
144	0xbe7ea391	-0.24867083
145	0xbe1029a0	-0.14078379
146	0xbbca29bd	-0.0061695264
147	0xbe378db8	-0.17925155
148	0xbe2f0aa4	-0.17093903
149	0xbd58a1f8	-0.05288884
150	0x3d25b4d1	0.040455643
151	0x3dce11b3	0.100619696
152	0xbe04a393	-0.12953024
153	0xbdb1781f	-0.086654894
154	0x3dbb36ec	0.09141335
155	0x3e61e19e	0.22058722
156	0x3e08d42f	0.13362192
157	0xbea0b4a3	-0.31387815
158	0xbe8d5ab8	-0.27608275
159	0x3dac96a5	0.08427171
160	0xbe20b4ee	-0.15694019
161	0xbe24a96b	-0.16080253
162	0xbc52cb59	-0.012865865
163	0x3e7d43d6	0.24732909
164	0x3d597ea4	0.05309929
165	0xbe7e5421	-0.2483678
166	0x3d80e8d4	0.062944084
167	0x3e86f74c	0.26360548
168	0x3cb131b4	0.021630146
169	0x3e0e6d4d	0.13908882
170	0xbc178097	-0.009246967
171	0xbd737018	-0.059433073
172	0x3e2a2733	0.16616516
173	0x3d35b292	0.04435975
174	0x3d8ce208	0.068790495
175	0xbca240a3	-0.019806212
176	0xbe5af370	-0.21381927
177	0x3e4b92b8	0.19880188
178	0xbdb87795	-0.090071835
179	0x3d8ea589	0.06965167
180	0xbde7010c	-0.112794966
181	0x3df41569	0.11918146
182	0x3e055cc3	0.13023667
183	0x3c9cea9f	0.019154845
184	0xbdf8d7a6	-0.12150507
185	0x3e3cc87f	0.18435858
186	0xbe40d1c2	-0.18830016
187	0xbe1dffeb	-0.15429656
188	0xbe459a63	-0.19297175
189	0xbd939f98	-0.072081745
190	0x3ea540f8	0.3227613
191	0xbbb6deb5	-0.005580748
192	0xbe947f18	-0.29003215
193	0x3d976bd8	0.073936164
194	0x3e632441	0.22181799
195	0xbdc27044	-0.09494069
196	0x3ddf96f9	0.109174676
197	0xbc319ddf	-0.010840862
198	0xbe1f529f	-0.15558861
199	0x3dde952e	0.108682975
200	0x3d84338b	0.064551435
201	0x3d9025c9	0.07038457
202	0xbe637aaf	-0.22214769
203	0x3dc73e6e	0.097287044
204	0x3e6a5848	0.22885239
205	0xbdd1fc2c	-0.10253176
206	0x3c8a5d59	0.016890215
207	0xbe904625	-0.28178516
208	0xbe521cf6	-0.2051886
209	0x3e4c8f3a	0.19976512
210	0x3e83adff	0.25718686
211	0x3c9378b5	0.018001894
212	0x3e4b93c6	0.1988059
213	0xbdb89609	-0.09012992
214	0x3e1c1df2	0.15245798
215	0x3d3e7100	0.046494484
216	0xbdb73820	-0.08946252
217	0xbda9cb75	-0.082907595
218	0x3d9b9540	0.075968266
219	0x3e858433	0.26077422
220	0x3e960bc6	0.29305857
221	0xbde6a54e	-0.11261998
222	0x3dbf84bf	0.09351491
223	0x3e920f9b	0.2852753
224	0xbe0402e0	-0.12891722
225	0xbdbd0d17	-0.09231012
226	0xbe3437d0	-0.17599416
227	0x3d4f84da	0.050663806
228	0x3e4802d7	0.19532333
229	0xbe8b2fcb	-0.271849
230	0xbe7f8475	-0.24952872
231	0xbe05576c	-0.1302163
232	0x3d94d08e	0.07266341
233	0x3e5df43e	0.21675202
234	0x3e36df6c	0.17858666
235	0xbe9705d9	-0.2949665
236	0xbe86e440	-0.26346016
237	0x3e274361	0.16334297
238	0xbe65b713	-0.22433119
239	0x3e0c6646	0.13710889
240	0xbc825e22	-0.015914027
241	0xbc46323d	-0.012096939
242	0x3dddbbe3	0.10826852
243	0x3e15e91c	0.14639705
244	0xbe7e541f	-0.24836777
245	0x3e5685c9	0.20949472
246	0xbe294c4b	-0.1653301
247	0xbde07dcd	-0.109614946
248	0x3d64a478	0.055820912
249	0x3e9a0de9	0.30088738
250	0xbeb14b54	-0.34627783
251	0xbdb76b86	-0.08956055
252	0x3d69d3e5	0.057086844
253	0x3d3e1273	0.046404313
254	0x3dbe1548	0.09281403
255	0x3dab8d4e	0.08376561

arr_11 f4 [32]
0	0xbc20f664	-0.009824369
1	0xbce1f775	-0.027583817
2	0xbd8f32c6	-0.06992106
3	0xbd3ab877	-0.045586076
4	0xbdacd955	-0.0843989
5	0x3ace3d6a	0.0015734856
6	0x3cd17f4b	0.025573393
7	0xbd6d7edd	-0.057982314
8	0xbc8ec2fd	-0.017426962
9	0xbd1cb5f2	-0.038259454
10	0x3c75d08c	0.015003335
11	0xbc51f56c	-0.012814861
12	0x3d1a6f68	0.0377039
13	0xbca60e43	-0.020270472
14	0xbd8c0363	-0.068365835
15	0xba3739a5	-0.00069894857
16	0x3c764b05	0.0150325345
17	0x3c49a80a	0.01230813
18	0x3c967583	0.01836658
19	0x3c4ba9da	0.0124306325
20	0xbd147851	-0.036247555
21	0xbbab5127	-0.00522818
22	0x3b50acdd	0.0031841316
23	0xbcc0033b	-0.02343904
24	0xbbc38e49	-0.0059678894
25	0xbc092a2e	-0.008371873
26	0xbc87c559	-0.016573595
27	0xbc89e8d2	-0.01683465
28	0x3d29ae1e	0.041425817
29	0x3bf382ab	0.0074313483
30	0xbd167098	-0.03672847
31	0xbd7d12c7	-0.061785486

arr_12 f4 [32, 32]
0	0xbe42c3fb	-0.19020073
1	0xbe8aa640	-0.27079964
2	0x3dd64496	0.104623005
3	0x3d637d4c	0.055539414
4	0xbe04c42d	-0.1296546
5	0x3e08d9f1	0.13364388
6	0x3e4c6c6b	0.19963233
7	0x3deae4ff	0.11469459
8	0x3e8ad216	0.27113408
9	0x3e65f7ea	0.22457853
10	0x3e3a17bc	0.18173116
11	0x3e885b2b	0.26632056
12	0x3dd6d38c	0.10489568
13	0x3e0ca234	0.1373375
14	0xbe02c37c	-0.12769884
15	0xbcde26d5	-0.027118126
16	0xbe466aa4	-0.19376618
17	0xbe3f6098	-0.18689191
18	0x3dfcdcb1	0.12346781
19	0xbca9048c	-0.020632051
20	0x3e6429c4	0.22281557
21	0x3cc04530	0.023470491
22	0xbd487fe9	-0.04895011
23	0xbe5bd8a9	-0.21469368
24	0x3e4e7c38	0.20164573
25	0x3d931544	0.071817905
26	0x3e19c2e7	0.15015756
27	0x3e546b13	0.2074397
28	0x3be550e4	0.0069981683
29	0x3e04471a	0.12917748
30	0xbe3334d3	-0.1750062
31	0xbdd63de3	-0.10461023
32	0xbd85d26e	-0.06534277
33	0x3e3d906f	0.18512128
34	0x3e155e2b	0.14586703
35	0x3e981188	0.29700875
36	0x3e90a1c9	0.28248432
37	0x3e3698ae	0.1783168
38	0x3d8b3981	0.067980774
39	0x3d0fc3c2	0.0350988
40	0x3e897e66	0.26854247
41	0xbbfd3579	-0.0077273217
42	0x3e8c9c83	0.2746316
43	0x3e1d3bed	0.15354891
44	0xbd2a0e0b	-0.0415173
45	0x3e5ed961	0.21762611
46	0x3d1808d8	0.03711781
47	0xbe5b3653	-0.21407442
48	0xbda05cb6	-0.07830183
49	0xbd3aa017	-0.04556283
50	0xbdfc1fc7	-0.123107485
51	0xbd28b24c	-0.041185662
52	0x3db89e6a	0.0901459
53	0xbe2703b9	-0.16310014
54	0xbe6a56fd	-0.22884746
55	0x3d49ba6f	0.049250063
56	0x3d041523	0.03224672
57	0xbe09bb92	-0.13450459
58	0x3d372db9	0.04472134
59	0xbe222423	-0.15834098
60	0x3e3f3357	0.18671928
61	0x3e3a4337	0.18189703
62	0xbde5f5f9	-0.11228556
63	0xbe7020f4	-0.2345007
64	0xbdd0b7bb	-0.10191294
65	0x3e2bb8d2	0.16769722
66	0x3e984339	0.29738787
67	0x3e5bfe58	0.21483743
68	0x3df8e2a3	0.121526025
69	0x3e47b74a	0.19503513
70	0xbd2953ae	-0.04133957
71	0xbd85ce32	-0.06533469
72	0x3e7d0c94	0.2471183
73	0x3e228335	0.15870364
74	0xbe187097	-0.148867
75	0xbdda1a3c	-0.10649535
76	0xbc897af0	-0.016782254
77	0x3da9a115	0.08282677
78	0xbd4a67a7	-0.049415257
79	0x3e5888f8	0.21146
80	0x3e8ce662	0.27519518
81	0x3d0419b6	0.032251082
82	0xbdd9af08	-0.10629088
83	0x3e279975	0.16367133
84	0xbda796e0	-0.08183074
85	0xbd22bf74	-0.039733365
86	0xbd87611c	-0.06610319
87	0xbdfbbc43	-0.122917674
88	0xbce0dc15	-0.027448693
89	0x3e7391c2	0.23786071
90	0x3dc978bd	0.09837482
91	0xbdb61c27	-0.088920884
92	0x3e81f8cd	0.25385132
93	0xbe78fb12	-0.24314526
94	0xbdff66b8	-0.12470764
95	0x3da0057c	0.07813546
96	0xbe95433b	-0.29152855
97	0x3e089296	0.13337168
98	0x3debe2d4	0.115178734
99	0xbca58f6f	-0.020209996
100	0xbdeec1ca	-0.11658056
101	0xbe57fa1e	-0.21091506
102	0x3e0bcad5	0.13651593
103	0xbe651cb5	-0.22374232
104	0x3e23c5a0	0.15993357
105	0x3d678c61	0.05653036
106	0xbe204b10	-0.15653634
107	0x3e513990	0.20432115
108	0xbe90b74c	-0.28264844
109	0x3dc5a83e	0.0965123
110	0xbdabf023	-0.08395412
111	0xbe67e2c0	-0.22645092
112	0xbea3ff11	-0.32030538
113	0x3ea9dbfe	0.33175653
114	0x3d823afa	0.06358905
115	0xbe7738ba	-0.24142733
116	0x3e9b2589	0.30302075
117	0xbdee4b73	-0.116354845
118	0x3e9c4664	0.30522454
119	0xbe1a6a2a	-0.15079561
120	0xbd5264ca	-0.05136565
121	0xbdab76f8	-0.08372301
122	0xbea836ed	-0.32854405
123	0x3e84397e	0.25825113
124	0xbe93438c	-0.28762472
125	0x3d637594	0.055532053
126	0x3e866e38	0.26255965
127	0xbb8b9e4b	-0.0042608134
128	0x3de3d258	0.11124104
129	0xbda8c71d	-0.08241103
130	0x3df9a44e	0.12189542
131	0x3e2d1a76	0.16904625
132	0xbd14b12b	-0.036301773
133	0xbcb9d705	-0.022685537
134	0xbe79ef8d	-0.24407788
135	0xbd316501	-0.043309215
136	0xbe2e2638	-0.17006767
137	0x3d825712	0.063642636
138	0x3e871589	0.26383618
139	0xbe01510f	-0.12628578
140	0x3e777a4c	0.24167746
141	0x3e10c6bf	0.14138316
142	0xbe074baa	-0.13212457
143	0x3e85d954	0.2614237
144	0x3e2e5688	0.17025197
145	0xbe2d7d8c	-0.16942424
146	0xbdefcc00	-0.11708832
147	0x3e287952	0.1645253
148	0x3d210070	0.039307058
149	0xbe7e0df4	-0.2481001
150	0x3c1c1d60	0.009528488
151	0x3ea2b051	0.31775144
152	0x3dd47c11	0.10375226
153	0xbe2184be	-0.15773293
154	0xbe0bd645	-0.13655956
155	0x3e1d9ef9	0.15392675
156	0x3d147753	0.03624661
157	0xbc0e5cd9	-0.008689129
158	0x3e3e2727	0.18569623
159	0x3e8d3c86	0.27585238
160	0x3e3e37cc	0.18575972
161	0xbe25f5f7	-0.1620711
162	0xbe5900d6	-0.21191725
163	0xbd3ee0ff	-0.04660129
164	0xbe03491a	-0.12820855
165	0x3e042b08	0.1290704
166	0x3c74381d	0.014905957
167	0x3e03ccba	0.12871066
168	0xbd7b274a	-0.061316766
169	0x3dceb78e	0.10093604
170	0xbe68fbe9	-0.22752346
171	0x3e6e815c	0.23291534
172	0x3db8a4c0	0.090157986
173	0xbe468cc7	-0.1938964
174	0xbe8c08a9	-0.27350357
175	0x3e67555c	0.22591156
176	0x3eb04c06	0.34433
177	0xbe15b689	-0.14620413
178	0xbdaa061c	-0.083019465
179	0xbe84eb33	-0.25960693
180	0x3e0bd3a7	0.13654958
181	0x3ea7217b	0.3264273
182	0x3d9965a5	0.0749009
183	0x3e83b87f	0.25726697
184	0x3e3f1ae9	0.18662609
185	0x3d89c0e0	0.06726241
186	0xbd02a845	-0.031898756
187	0x3e8e873b	0.27837548
188	0xbe5eb85c	-0.21750015
189	0xbe87cce3	-0.26523504
190	0x3e75506c	0.2395646
191	0x3da59b4a	0.0808626
192	0x3debb6df	0.11509489
193	0x3da36025	0.079773225
194	0xbe756825	-0.23965509
195	0xbd0763b3	-0.033054065
196	0xbe5f3b01	-0.21799852
197	0x3c6fd03a	0.014637047
198	0xbe2aeca4	-0.16691834
199	0xbe2a4d7a	-0.16631117
200	0xbd986ef3	-0.07443037
201	0xbe4376a0	-0.1908822
202	0x3e9bdf82	0.3044396
203	0x3e8fd20f	0.2808995
204	0xbe64a4d4	-0.22328502
205	0x3bd85b65	0.006602692
206	0x3e136b0e	0.14396307
207	0x3e208b55	0.15678151
208	0xbccde957	-0.02513568
209	0x3df18ca1	0.11794401
210	0xbe19c11b	-0.1501507
211	0x3e05a6ee	0.1305196
212	0x3e12786d	0.14303751
213	0xbdeea214	-0.11652008
214	0x3e7b8d71	0.24565674
215	0xbeac2342	-0.3362065
216	0x3da5c367	0.08093911
217	0x3e14e5f1	0.1454084
218	0x3e47a85c	0.19497818
219	0xbd725f10	-0.05917269
220	0x3dd18f98	0.102324665
221	0x3d9a7cbe	0.07543324
222	0x3e0a0e9c	0.13482136
223	0x3d0ae794	0.033912256
224	0x3e7abea5	0.24486788
225	0xbe6a2401	-0.22865297
226	0x3e45d0bc	0.19317907
227	0x3e25d4fe	0.16194531
228	0xbdcb0c82	-0.09914495
229	0xbe1a1101	-0.15045549
230	0xbe5b343f	-0.21406649
231	0x3c613be4	0.013747189
232	0x3e888f99	0.26672056
233	0xbe8b7854	-0.2724024
234	0x3e7be6a0	0.24599695
235	0x3e3c532d	0.18391104
236	0x3bc345da	0.0059592547
237	0x3df7e914	0.12105003
238	0x3e57add7	0.21062408
239	0xbe59ca4a	-0.21268573
240	0x3e832b3e	0.2561893
241	0x3e7c00db	0.24609701
242	0xbd8ac122	-0.067751184
243	0x3dc970b5	0.0983595
244	0x3d51bcb7	0.051205363
245	0xbe327e6d	-0.1743104
246	0x3e6ca5fb	0.23110192
247	0x3c06cad7	0.008227072
248	0x3c66d09c	0.014087822
249	0x3e336d4a	0.17522159
250	0xbeb28e8e	-0.34874386
251	0xbe78cf34	-0.24297792
252	0xbe6906cb	-0.22756498
253	0x3e3d473b	0.18484204
254	0xbd5300a9	-0.0515143
255	0xbe9e3deb	-0.30906615

arr_13 f4 [32]
0	0xbd11ad9b	-0.035565954
1	0x3b16b6dc	0.0022997176
2	0x3d4dd39b	0.05025063
3	0x3ca02de6	0.019553136
4	0xbcc34612	-0.023837123
5	0xbc1cddeb	-0.009574394
6	0x3c2ce73d	0.010553178
7	0xbc3b0a3c	-0.011416014
8	0x3c7d4d85	0.015460377
9	0xbc49acf4	-0.012309302
10	0xbae10492	-0.00171675
11	0xbc25f488	-0.010129102
12	0xbc2067c5	-0.009790366
13	0xbc958b76	-0.018254977
14	0x3b02f522	0.0019982536
15	0xbaf06f38	-0.0018343693
16	0x3ba7ac78	0.0051169954
17	0xbc9ca042	-0.019119386
18	0x3d430152	0.04760868
19	0x3b1b8e30	0.0023735873
20	0x3d856468	0.065132916
21	0x3cc70f63	0.02429933
22	0x3c12a179	0.008949631
23	0xbd25901a	-0.04042063
24	0xbbe62513	-0.0070234626
25	0x3c4e1e8e	0.012580527
26	0x3c163cd5	0.009169777
27	0xbd7020ba	-0.05862496
28	0x3d6dff12	0.058104582
29	0xbca0a489	-0.019609706
30	0x3b8b05f7	0.0042426544
31	0xbcdbfed4	-0.02685491
