beliefppg/inference/inference_model_weights.npz (npz, 552836 bytes, 80 tensors)

arr_0 f4 [3, 3, 2, 32]
00000000: 7a4d 88bd 39c0 99bd a85c 85bd 2127 efbd
00000010: a238 5fbc 5688 ea3d 029b aebd 0aba 8d3d
00000020: c65f 3e3e 440d a3bd 9963 0abd 2fc7 223d
00000030: c5df 163a 82e1 39bd 58b8 9b3d bb3f 1d3d
00000040: ebce 3dbe 577a 46bd 089a a2bd 5abc 96bd
00000050: ef09 ccbc 8590 483c 76f1 2bbc aaec 943d
00000060: e1af ca3d dc67 fcbd 01ee 92bc b559 a63d
00000070: 95b8 903d a245 933d 9bd4 aabd 7364 68bd
00000080: 82fc 733d 131b 36bb 8259 8abd 7689 8d3d
00000090: 3407 5cbd 90dd a1bd 2728 573d 8359 e73d
000000a0: 0b62 76bd 5b85 b7bd 5a9e c3bb 8904 9d3d
000000b0: 8ede 023e e4c2 5fbd 54bd 2dbe 67d4 2fbe
000000c0: 2203 c33b 7eac b0bc 325b 903d 8975 a13d
000000d0: d173 323d 80c1 14bd 1ba5 943d 1073 7d3d
000000e0: 9923 e83c e250 d43d 271f 5fbd 625a 8bbc
000000f0: e333 953c 4c02 3ebc 4f98 043d 407f 82bd
00000100: 51b6 0f3d bbc5 cfbc 5f39 003e eb25 b23d
00000110: 0c39 9d3c 2d8f 813c 8561 ca3d 78cd da3a
00000120: 890c 19be 7e3c 943d e3af c73d 7fb2 8fbc
00000130: 8657 50bd 8c81 6cbd 9af4 b33d e9e5 82bd
00000140: 1152 dc3d c01f 81bc 142b d3bc 4520 4bbd
00000150: effe 8d3b 8436 ae3d ac8e 20bd e65e 7fbc
00000160: 1c8c 19bd e517 f9bd 0c03 a23a f648 453d
00000170: 1901 82bd f0bf 2bbd d6ca 493c a6b0 033d
00000180: 63b6 993d 88d0 613d 1e77 a13c e29a 603c
00000190: 33cc 2a3d 55b9 993d f676 a43d d9b1 7d3d
000001a0: c9d5 6f3d 7e47 89bd ea9a 673d 118c 94bd
000001b0: c6d6 213d 1b62 34bd adff 013d 43c8 0a3e
000001c0: ebcd 2fbb bf34 433c a97c 01be 1ff3 0ebd
000001d0: 1de0 c1bb 6d86 19ba 2802 35bd 3e60 bbbd
000001e0: f9e6 cb3c 03cc 833c 77d5 063d 81cd c93c
000001f0: 009d 58bd d8c4 d1bd b01e bf3a 464e 1fbc
00000200: e057 8b3c 2de0 05be d299 07be 7c73 7abd
00000210: 8226 c23c 842c cd3c 0abc f6bd 72b1 47bb
00000220: cab3 8cbc 819d 8abd 634a 0f3c 420d 8d3c
00000230: 9d4d e43c 536f 9e3d 0e5b d0bc e304 90bc
00000240: 54b6 25be 6cbd 8e3d 00b7 84bc 3c35 cdbc
00000250: baff cabc becc af3c b489 333e 69a0 13bc
00000260: ab16 e6bd 91cb 1e3e 860d 66bd 92ef 9e3d
00000270: 4630 7fbd 6512 a13c a71f afbd e918 1bbd
00000280: 4368 b5bd 5a8d 71bc cac2 0f3d 6dd9 003d
00000290: f2d4 8dbd 6947 9dbd 98ff a1bd 080d d4bd
000002a0: 2083 b137 c6dc 673d dc9e 143d 6ab9 acbd
000002b0: 6f31 a73d 3012 a9bd 4e0c 473d 3552 0f3d
000002c0: 20ba 1dbd 313d 8e3c 9b7d 8a3d 02f0 303d
000002d0: 158a 0abd f47d c3bc dc06 c0bd 34d0 a33d
000002e0: 835c 97bd a1d0 33bd 9ffb 7dbb d060 80bd
000002f0: fa59 54bd 657f e33c 9dec 1fbc 6250 d53d
00000300: 836a 71bd 41bf 61bd 15c0 9fbd 24f7 f0bc
00000310: 7e68 c1bd f57b 6dbd 3df7 013b b13b 38bc
00000320: b97f ef3d 5572 53be 33b6 6bbc a2b7 b5bd
00000330: 8150 be3d 633d 3d3b 61a2 b9bc d8ae 0b3e
00000340: 31c9 853d 61e0 b4bc 9136 bc3d b3df 96bd
00000350: cb10 ef3d 3969 a3bd 71d4 1a3d 0d59 a3bd
00000360: 4901 b7bd 851f 223d 431a 383e bb29 3cbe
00000370: e55d 0bbe 5e24 603d d93f a63d 722d afbd
00000380: 9631 203d 8970 3a3c 3e70 c93c 842b 3cbe
00000390: 70f6 ab3c 5b0e f8bd e539 a43d 2cc8 febd
000003a0: 1dfc e93c bf4c 8cbd 3b65 3c3c 06af 173e
000003b0: 19a1 803d fb63 253e d42c 333d 4bd5 eabd
000003c0: fc4f c53b e8f8 233d b414 e5bc 765f 173d
000003d0: 0b49 df3c de13 e73c 7f5a 6d3d 3a9b 9fba
000003e0: 66a3 723c 3de9 92bd 9a81 383d 4c0e 783d
000003f0: 8e80 243d ff1d f3bc 7976 52bd c55f a4bd
-0.066554025 -0.07507367 -0.065118134 -0.11677385 -0.013624342 0.11451785 -0.08525659 0.0692025
0.18591222 -0.079615146 -0.03378639 0.039740738 0.000575539 -0.045381077 0.0760352 0.038390856
-0.18535964 -0.048456516 -0.079395354 -0.07360144 -0.02490708 0.012241487 -0.0104945805 0.072717026
0.098968275 -0.12324497 -0.017935755 0.08122579 0.07066456 0.07191016 -0.083413325 -0.05673642
0.059566982 -0.0027787134 -0.067553535 0.06910984 -0.053717807 -0.07903588 0.052528527 0.1129637
-0.060152095 -0.089609824 -0.0059698047 0.07666881 0.1278021 -0.05462922 -0.16966754 -0.17170869
0.005951301 -0.021566626 0.07048644 0.07883746 0.043567482 -0.03631735 0.07258054 0.06187731
0.028337287 0.1036699 -0.05447307 -0.017010871 0.018213218 -0.011597227 0.032371815 -0.06371927
0.03508598 -0.02536284 0.12521885 0.086986385 0.019192241 0.015815342 0.098818816 0.0016693315
-0.14946188 0.072381005 0.097503446 -0.017541168 -0.05086472 -0.057740733 0.087868884 -0.06391508
0.107578404 -0.01576221 -0.025777377 -0.04959132 0.004333369 0.08506492 -0.039198563 -0.01558659
-0.037487134 -0.12162761 0.0012360527 0.048165284 -0.063478656 -0.041931093 0.012316426 0.032150887
0.07505491 0.05513051 0.01971012 0.013708802 0.041698646 0.075060524 0.080305025 0.061937187
0.05855349 -0.06703089 0.056544222 -0.07253278 0.039511465 -0.044038873 0.031737972 0.13552956
-0.0026825618 0.011914431 -0.1264521 -0.034899827 -0.005916609 -0.0005856518 -0.04419151 -0.09149216
0.02489041 0.016088491 0.03291842 0.024634125 -0.052884102 -0.10242623 0.0014581289 -0.009723252
0.017009676 -0.13073798 -0.13242272 -0.06114529 0.023700003 0.02504564 -0.12047584 -0.0030470756
-0.017175574 -0.06768323 0.0087457625 0.017218236 0.02786904 0.07736077 -0.025434043 -0.017580455
-0.16182834 0.06969723 -0.016200542 -0.025049798 -0.024780143 0.021459933 0.17532998 -0.009010413
-0.11234792 0.15507342 -0.05616524 0.07760538 -0.062301897 0.019662092 -0.08550959 -0.037865553
-0.08857777 -0.0147431735 0.035097875 0.031457353 -0.06925382 -0.07679636 -0.07910079 -0.10354048
2.1161104e-05 0.05660703 0.036284313 -0.084338024 0.081637256 -0.08255422 0.04859572 0.034990508
-0.03850758 0.017363163 0.067622386 0.04319764 -0.03382309 -0.02386377 -0.09376308 0.07998696
-0.07390692 -0.043900136 -0.0038754714 -0.062684655 -0.05184362 0.027770707 -0.009761003 0.104157224
-0.058939468 -0.055114035 -0.078003086 -0.02941472 -0.094437584 -0.057979543 0.0019831203 -0.0112447
0.11694283 -0.20649083 -0.014386701 -0.08872916 0.09292699 0.00288757 -0.022660436 0.13640916
0.06532515 -0.022079648 0.09190095 -0.07366886 0.11673125 -0.07979054 0.037800256 -0.079759695
-0.08935792 0.03958084 0.17978768 -0.18375294 -0.13610037 0.054722182 0.08117647 -0.0855359
0.03910979 0.01137937 0.024589654 -0.18375975 0.020991534 -0.12112113 0.08018855 -0.124405235
0.0285626 -0.06850576 0.011498745 0.1481286 0.06280727 0.16151421 0.043743923 -0.11466464
0.006021498 0.040032297 -0.027963974 0.036956273 0.02725651 0.028207716 0.057947632 -0.0012176998
0.014809465 -0.07173393 0.045045473 0.06056051 0.04016166 -0.02967739 -0.051382516 -0.08026079

arr_1 f4 [32]
00000000: 346e f2bc c10a c8bc b8e4 97bc 6e9e 29be
00000010: ab8f 24bc 6f36 cdbd eecd a4bd 5dd6 cbbd
00000020: 82c5 4abd e329 c8bd b03b 83bd e5ed c7bd
00000030: ef45 25be 7cd1 1bbe 2b91 14be 2b03 9abd
00000040: 0656 f3bc 202e 8bbd ce2d 09be 6f3a 123d
00000050: a50a 35bd 26ac 933d c507 dbbd 53cc c7bd
00000060: af2a a4bd a1a8 aebd 7d7e 39bd ce76 8cbd
00000070: 8cdf c5bd d88b cfbd 3156 e1bd c103 00bd
-0.029593565 -0.02441919 -0.018541679 -0.16564342 -0.010044019 -0.10020148 -0.080470905 -0.09952996
-0.049504764 -0.09773614 -0.06407869 -0.09762172 -0.16139959 -0.1521663 -0.14508502 -0.075201355
-0.029704105 -0.06795907 -0.1339638 0.035700258 -0.044199605 0.07210569 -0.10694841 -0.097557686
-0.08015954 -0.08528257 -0.045286644 -0.06858598 -0.09661779 -0.10134095 -0.11002768 -0.03125358

arr_2 f4 [3, 3, 32, 32]
00000000: eeed e6bd c6a0 09bd 4aac 7abd 2de8 173d
00000010: 7566 ffbc 31d6 83bc 8669 bfbc 03dc d83c
00000020: af57 433c d38c 213d 200e aabc b834 c53c
00000030: 8187 4abd a9cd 3fbd 035e 84bd b7e3 10bd
00000040: 0890 b9bd ff3d 47bd 5948 bcbb 9506 28bd
00000050: f07b 49bd 83eb c5bd ad00 b3bd 2203 b93d
00000060: e19d dbbc 5ed1 46bd 390d 22bd 7af4 0b3d
00000070: e47f d43c a962 2a3d 3673 2abd f0c5 15be
00000080: cae8 c83d 12e7 c1bd 4c62 85bc 018b 89ba
00000090: 33d3 b7bd fa38 f6bd 7cfa c4bc 3caf 0fbd
000000a0: 89ea 843d 6d03 04be 515f 923c 44fa 03bd
000000b0: 5399 56be 6120 f33d f708 4c3d 3ce1 5d3d
000000c0: c644 bdbc 05f8 bd3d c27b 0bbe 7944 e1bc
000000d0: 8726 91bd fdb6 cebb 2ceb 973c f91e 2f3d
000000e0: c33d 893d f98a e73c 284f 1c3d e10b 763d
000000f0: cb53 4dbd 8e56 bdbc 61ce bebc 25c0 b2bd
00000100: 0a05 003e 4ceb 853d bd80 ad3c 77b4 4abd
00000110: dcad d4bc 6c2f bc3c b29f 113c b778 d83b
00000120: aefd 83bc 9f1a 63be 6dbf 313d fd5b bdbd
00000130: 324b b83a 4c5a 3ebd 5965 fe3b c40a 34bd
00000140: 9eea 1fbe 6235 90bd 6f69 efbc 1aa9 85bd
00000150: 5cc6 c73c e580 94bd 5639 493d 4f3b 093c
00000160: ee26 8bbe dd7f 98bb 39d3 4abe 1721 043e
00000170: 712b 233d c78a a83b ab1f ad3c 974b c0b9
00000180: f720 adbd 31a3 15be f659 d53d 8aa2 e53c
00000190: f0c8 7e3d d293 96bc 831a 29bd de31 5c3d
000001a0: 0719 573c c45f 91bd d447 3bbd 9aae 7ebd
000001b0: 5d39 47bd be1c 593b 969c ccbd e630 fdbd
000001c0: f374 92bd 8526 60bc 45a6 253d 01bf 8e3d
000001d0: d4e4 fcbd a525 9dbd bc65 2dbd 62cb 323c
000001e0: 49ce 933d 73f8 03bd 87d3 a93d 313d 06be
000001f0: 6aa3 9d3c 60ca 94bd a3b4 c8bd 3979 1fbd
00000200: c4bd 0c3e 0302 583d b0bd 51bc 3aa1 13bc
00000210: 6827 623c 2cdf 52bd 2e81 303b 263e 993d
00000220: ca95 a2bd cae7 42be 3f83 943d acb9 11be
00000230: 4c41 c1bd 7067 f8bd ec98 713d 5647 363d
00000240: 0405 2ebd ec74 913d b4e6 99bd ddd3 9e3d
00000250: 37da 53bc 83e6 3cbc 1d08 f6bd cf0c 913d
00000260: a4ff 25bd faaf 73bd 4a4a 0f3d c314 8f3d
00000270: 96a3 553e fb6c b3bd 9bc1 133d 3b98 81bd
00000280: 4f9f a0bd 3276 083c 4656 99bd c57b cdbd
00000290: 845c 4abd c861 6bbd 4632 a7bc edb9 bc3d
000002a0: 74e5 81bc 39d0 03bd 6596 2b3c 85bb 6dbc
000002b0: f828 d8bc 56a1 393d 10b4 7fbd db1d 53bd
000002c0: db45 243d 6dba 26bd f739 1a3c f0b4 24bd
000002d0: 2c27 cebd f742 e23d fb71 06bd 6fc5 85bd
000002e0: 0240 0e3c 88a9 ab3c 95c9 733d fe7e 41bc
000002f0: a327 4ebe a0d8 fdbb c7a7 0e3e 87c7 efbc
00000300: c3d1 653d 0a47 37bd f071 01be a3b7 5fbc
00000310: 402e 4abc c303 0bbe 065e a8bb ba27 c93c
00000320: 8f44 bfbd d62c f2bd c8dd e8ba 9780 613d
00000330: 2828 403c 87aa 84bd 86fb 963d 1f2c 4b3d
00000340: 5c85 4c3d 7e25 b7bc eae7 b03d 922a 1abc
00000350: 9ef1 b1bb 2829 8f3c 83fe 9fbd cd6e 0e3d
00000360: 54ab 6b3d 13a8 1bbe f778 103d e9fb b23d
00000370: 4c77 163c dc99 693d aa00 b03d 7ed2 17bd
00000380: 2814 993d cc8e 873d f4af 5abd 9e8b 873c
00000390: adf8 92bc 25ef 8a3c 4ea7 91bd 0511 243d
000003a0: b4ab 573d 44a3 15be d569 09be 6291 97bc
000003b0: 02f2 b63c 849c bc3d c4f5 dd3c 8916 913d
000003c0: 82bf e0bd 5e58 1e3d ede5 4f3d 9ea8 80bd
000003d0: f25d 593d c021 05bd 2f2f 32bd 5fd8 083d
000003e0: f30e 90bd f4c2 bb3d 4eab 79bd d0eb ea3d
000003f0: 4fde 01bd 4aad a4bc 79f4 60be 2395 a33d
-0.1127585 -0.03360059 -0.061199464 0.037086654 -0.031176785 -0.016093345 -0.023365747 0.026472097
0.011922761 0.03944094 -0.020758688 0.02407299 -0.049445633 -0.046826992 -0.06463244 -0.035373416
-0.09060675 -0.04864311 -0.005745929 -0.041021902 -0.04919046 -0.09664061 -0.08740363 0.09033801
-0.026808681 -0.04853951 -0.03956339 0.034168698 0.02593989 0.041597996 -0.04161378 -0.14626288
0.09810026 -0.09467901 -0.016282223 -0.0010493697 -0.0897583 -0.12022586 -0.024045222 -0.035079226
0.064900465 -0.12891932 0.017867716 -0.032221094 -0.20956926 0.1187141 0.049813237 0.05416988
-0.023104083 0.092758216 -0.13621429 -0.02749847 -0.07087427 -0.006308435 0.018544756 0.042754147
0.06701233 0.02826451 0.038161427 0.060069922 -0.05012874 -0.023112562 -0.023291769 -0.08728055
0.12501922 0.0653902 0.021179551 -0.04948851 -0.025961809 0.022971831 0.008888172 0.006606187
-0.016112175 -0.22178124 0.04339545 -0.09246061 0.0014060496 -0.046472833 0.0077635464 -0.04395558
-0.15616843 -0.07041432 -0.02922508 -0.06526394 0.024386577 -0.07251147 0.049126945 0.008375957
-0.27178138 -0.0046539144 -0.19807138 0.12903248 0.03983635 0.0051434967 0.021133265 -0.00036677413
-0.08453553 -0.14613034 0.10417549 0.028031606 0.062203348 -0.018381033 -0.04128505 0.053758495
0.013128526 -0.07098344 -0.045722798 -0.06217823 -0.04863869 0.0033128704 -0.09990804 -0.12362842
-0.071512125 -0.013681059 0.04044177 0.06970025 -0.12348333 -0.07673196 -0.04233335 0.010912748
0.0721708 -0.03221936 0.08292299 -0.1310928 0.019242961 -0.072651625 -0.09800079 -0.038933966
0.13744265 0.052736294 -0.012801573 -0.009010607 0.0138033405 -0.051482365 0.0026932466 0.07482557
-0.07938726 -0.19033733 0.07251596 -0.14230984 -0.094362825 -0.12129104 0.05898373 0.044501625
-0.042485252 0.07102379 -0.07514706 0.077552535 -0.012930444 -0.011529568 -0.12013266 0.07082521
-0.040527 -0.059493996 0.034982957 0.06986382 0.20863184 -0.08761021 0.03607331 -0.06327864
-0.07842886 0.008328961 -0.074871585 -0.10033373 -0.049404636 -0.0574663 -0.020409714 0.0921515
-0.015856482 -0.032181 0.010472869 -0.01451004 -0.026386723 0.045319878 -0.06242758 -0.051542144
0.040105682 -0.040705133 0.009413234 -0.040211618 -0.10066065 0.11047929 -0.032823544 -0.06531798
0.008682253 0.020954862 0.059518415 -0.011810062 -0.20132308 -0.007746771 0.1393119 -0.029269947
0.056108247 -0.044745483 -0.1264112 -0.013654622 -0.012340128 -0.13575654 -0.0051381616 0.024555076
-0.093392484 -0.11824958 -0.0017766291 0.055054273 0.011728324 -0.06477838 0.07372193 0.049602624
0.04993187 -0.022356745 0.08637984 -0.009409564 -0.0054304143 0.01747568 -0.07812216 0.034773637
0.057536438 -0.15200834 0.03527161 0.08739454 0.009183716 0.057031497 0.08593877 -0.037065975
0.074745476 0.06619033 -0.05339046 0.016546067 -0.017940843 0.016959736 -0.07111989 0.040055294
0.052653983 -0.14613062 -0.13419278 -0.018501941 0.022332195 0.092095405 0.02709473 0.07084376
-0.10974027 0.038658492 0.050756384 -0.06282161 0.05306811 -0.03250289 -0.04350203 0.033409473
-0.07034101 0.09168044 -0.060954385 0.11470759 -0.03170615 -0.020102162 -0.21968259 0.0798743

arr_3 f4 [32]
00000000: 716d 84bc 3a9e 1dbc 19f2 3ebe 7f2f 96bd
00000010: 5c53 5abd 2117 afb9 8136 23bd 03f8 34bd
00000020: ddb6 17be 0335 ddbd bf20 e5bd cf10 7cbc
00000030: 03f4 2bbe b343 f3bd 705e ca3d beac 4f3d
00000040: e855 863d fc7c 98bc 9dc9 eabd 1f58 77bd
00000050: 8981 92bd 766a 49bd 4612 bebd 1a5a 4cbd
00000060: 41de 363d f8ec 68bc 145b 8cbd 2cf7 2cbe
00000070: 4054 36bd 7326 84bd 82bd 2237 73c0 d4bd
-0.016165467 -0.009620244 -0.1864704 -0.07333278 -0.053302154 -0.00033395833 -0.0398469 -0.044181835
-0.1481585 -0.10801127 -0.111878864 -0.015384867 -0.16792302 -0.11878147 0.09881294 0.05070185
0.06559354 -0.018614285 -0.11464236 -0.060386773 -0.07153613 -0.049173795 -0.09280829 -0.049890615
0.04464555 -0.014216654 -0.06853309 -0.16891164 -0.04451394 -0.06452646 9.700076e-06 -0.10388269

arr_4 f4 [32, 32]
00000000: de57 47be 6396 7f3c 06c7 50be 28c4 6abe
00000010: 81e9 07bd 268a 08be 6a47 633d e4c3 833e
00000020: 5005 cbbe 23ff 48be 4689 ee3d 4b16 843c
00000030: f1f2 7b3e c37c 36be 54a8 a0bd f1d4 ae3c
00000040: f3f0 b0bd 369b 3cbe 8f20 5bbd 31c2 bdbd
00000050: 395e 18be ee9f 24be 8251 3abe dccc 97bd
00000060: 93c6 193d fdcb 74be 3501 6a3d d9fa 773e
00000070: 3a36 8f3d 40ca 59be 9cad dfbd 6e45 083c
00000080: 9ed5 af3d 3c72 84be 588b 9cbd 90fe 89be
00000090: 7b11 063a b0f0 09be 5ff1 533e b58c d33d
000000a0: cd23 a43e fb97 353e 327e 983b 61cb 193d
000000b0: 663e 7a3e c780 813e 2bc0 afbe 7101 00bd
000000c0: 01d7 13bd 0845 c53c d0bf 8e3e b244 94bc
000000d0: 9158 643e 12d6 5fbd 9fc7 113e 6ab8 8ebe
000000e0: 2343 0d3d 83ca 073e 8845 14bc 5788 4abe
000000f0: a24d 1abe 4a85 0abc 30e3 5b3e 3b97 22be
00000100: f5e3 ac3e b90e 5fbe 6a98 23bd 148f 283c
00000110: 15f5 07be 84d2 a13d be1f 383d 9985 bc3d
00000120: 4aac 0f3e c6d9 94be 2713 0cbe 002a d2bd
00000130: 32b2 163e d638 2c3d 61fb 75be a089 55bd
00000140: 66b5 65be 7de0 553e 715a 933e f168 173e
00000150: 1d2f 32bc 29e0 b13e 146c 523e 7e3a 8abe
00000160: c02c 2f3e c115 f63d 6ac5 ad3d 8c31 81be
00000170: 9376 d4bd 6173 1b3e 5275 af3e a01e 9cbd
00000180: a04f 92be 4a3b 373d 0035 28bd da9f a73e
00000190: b192 24bd b6b0 13be 32ac 883d 5bde a9bd
000001a0: 910c 133e 873c 19be 7cd8 0d3e a557 643d
000001b0: e8a5 b53a 8211 af3d 0aad 053e 39ad 8abd
000001c0: 61b6 1e3d 2adf 083e 5b13 9c3d bcbe 8abd
000001d0: 6ce7 2ebe d57c bc3d f2b2 52bd 30e8 1abe
000001e0: 115f d63d fc8c 07bd fefd 91bd 47ce adbe
000001f0: d542 6ebe 1997 4fbd 881a ed39 5e02 28be
00000200: ec42 78bd 7fa9 a33d eaf2 46be 3df3 eb3d
00000210: 47e8 cfbd 26b2 263e 21c3 803e 2220 103e
00000220: d4ec 623d 5207 273e 911b 4fbe f3fe 6d3e
00000230: c42d 8a3d 1f07 50be 6db2 893d 26d2 3abd
00000240: 0db5 043e a8cc 913e 9ed8 a5bd 8a6e cb3d
00000250: 41f4 8abe 581f 1f3e 952a 293e 6653 1fbe
00000260: 8ab5 cabd 2415 e13b dd0c 8f3e 08f2 84be
00000270: 09ec f93c 040d 3d3e e425 fd3c 1893 30be
00000280: 758c 72be e2a4 203e 147e 6ebd 63b2 50bd
00000290: d82d 8abe 212a 683e 33ef efbd c017 1abe
000002a0: 1e7b 93be e643 153e 2c63 86be 5e7f 7a3e
000002b0: e6e9 4ebd 0903 483c f1b7 50bd 8f47 0d3d
000002c0: 0fd8 4a3e 2bb4 1cbe ca99 63be 49cd b33e
000002d0: e3ff 94bd 12e7 0cbe 3724 df3d 6398 1dbe
000002e0: c1ac 8a3e 51ce ad3d 28be 843e 3a8f 873d
000002f0: 4bfc 0fbe f269 cfbd f822 f33d 4f0d de3e
00000300: 4d6d 603e 653f 1bbe 068d 55be 55ad d7bd
00000310: 4b7a 29bd d7d2 4dbe 76c2 afbe fb77 9dbd
00000320: 23a5 4f3d 2e5c a93c df8c 44be 9eed 7cbd
00000330: 2776 a0bb eddb 093e be08 843d 698e 96be
00000340: 3225 a7bd 0ffb 233e 15ce 903e 7d5e 23be
00000350: 7109 99be f4e3 6cbe 8bc3 0b3e 76ea 843d
00000360: 9d9a 3cbd edc4 59be e5be 0fbe 827e bf3e
00000370: d768 033d 1d1a 21be 0b24 25be 4f04 25be
00000380: 44a7 d83d 1d26 bdbd e04f 23be 0657 723e
00000390: c737 95bd 9daf 9abe 6705 6fbe a09f 31be
000003a0: 52d7 533d 8e1c 2b3e eddf 26be 9f73 733e
000003b0: 141e 0b3d 2ad8 42bb 4329 863d f8fa 963e
000003c0: b593 303e 4449 19bd 5a83 85be ce9e 5a3d
000003d0: a6b6 99bd 0d12 eb3d 182b 24bd 1667 743d
000003e0: 0537 97bd 6d81 103e 3a54 e9bd 219a 5cbe
000003f0: 1ea3 4b3e 3513 83be 2b68 ab3e 982c 0cbe
-0.19467112 0.01559982 -0.20388421 -0.2292639 -0.03318167 -0.1333395 0.055488028 0.2573539
-0.3965249 -0.19628577 0.116472766 0.016123911 0.24604394 -0.1782103 -0.07844606 0.021341773
-0.086397074 -0.18418583 -0.053497847 -0.09265555 -0.14879693 -0.16076633 -0.18195155 -0.07412121
0.03754289 -0.2390594 0.057130057 0.24216785 0.06992765 -0.21268559 -0.10921785 0.008317335
0.08585666 -0.25868404 -0.07643765 -0.26952028 0.0005114299 -0.13470721 0.20697545 0.10329572
0.32058564 0.17733757 0.0046537155 0.037547473 0.24437866 0.25293562 -0.343263 -0.031251375
-0.036093716 0.024080768 0.27880716 -0.018099163 0.2229941 -0.054647513 0.14236306 -0.27875072
0.034487855 0.13260846 -0.009049781 -0.19778572 -0.15068677 -0.00845463 0.21473384 -0.15878002
0.33767667 -0.2178296 -0.039940275 0.010288019 -0.13277085 0.07901481 0.044952147 0.09205169
0.14030567 -0.29072398 -0.13679181 -0.10261917 0.14716414 0.04204639 -0.24021675 -0.052133203
-0.2243248 0.20886417 0.2877994 0.14786126 -0.0108754905 0.34741333 0.20549041 -0.2699775
0.17106915 0.12015868 0.08484919 -0.25233114 -0.10374179 0.15180732 0.34269196 -0.07623029
-0.28576374 0.044734277 -0.04106617 0.32739145 -0.04017896 -0.14422879 0.06673469 -0.08294364
0.14360262 -0.14964496 0.13852113 0.055747647 0.0013858648 0.08548261 0.1305429 -0.06771321
0.03874815 0.1336638 0.07620879 -0.06774661 -0.17080468 0.09203497 -0.051440187 -0.15127635
0.10467351 -0.033093438 -0.07128523 -0.3394644 -0.23267682 -0.050681207 0.0004522393 -0.16407153
-0.060610697 0.07991313 -0.19428602 0.115210034 -0.10151725 0.16278896 0.25148872 0.14074758
0.05540164 0.16311386 -0.2022536 0.23241787 0.0674701 -0.20315216 0.06723485 -0.04561057
0.1295969 0.28476453 -0.08097957 0.09933193 -0.27139476 0.155393 0.1652015 -0.15559158
-0.09897907 0.0068689752 0.279395 -0.25965905 0.030508058 0.18461996 0.030901857 -0.17243612
-0.23686393 0.15687898 -0.058225706 -0.050951373 -0.269881 0.22672321 -0.117155455 -0.15048122
-0.28804868 0.14576682 -0.26247537 0.24462649 -0.05051603 0.012207755 -0.05095667 0.03449207
0.19808982 -0.15303104 -0.22226635 0.35117558 -0.07275369 -0.13760021 0.10895579 -0.15390162
0.27084926 0.08486617 0.25926328 0.06619115 -0.14061086 -0.10127629 0.11871904 0.4336953
0.21916695 -0.15160902 -0.20854577 -0.10531107 -0.041376393 -0.2009996 -0.3432805 -0.076889
0.050694596 0.020673838 -0.19194363 -0.061750047 -0.0048968974 0.13462801 0.0644698 -0.29405525
-0.08161391 0.1601374 0.28282228 -0.15954013 -0.29890016 -0.23133832 0.13648812 0.064900324
-0.04604589 -0.21266527 -0.14037664 0.37401205 0.032082405 -0.15732618 -0.1612703 -0.16114925
0.105787784 -0.09235785 -0.15948439 0.2366601 -0.07286029 -0.30212107 -0.23341905 -0.17346048
0.051719017 0.16710111 -0.16296358 0.23774575 0.03396423 -0.0029730895 0.06550839 0.2948835
0.17243846 -0.037423387 -0.26076776 0.053374104 -0.075055405 0.11478052 -0.04008016 0.059668623
-0.07383541 0.14111872 -0.11393018 -0.2154317 0.19886443 -0.2560059 0.3347791 -0.13688886

arr_5 f4 [32]
00000000: a76a eebc 46da d63c 8346 f4bc 9d3c 6abb
00000010: 6c05 703d 6e49 573d 62c6 463c 9ffd 723b
00000020: 346c 1c3d 5abc 68bc 464d d4bc 68c4 fa3c
00000030: 54b5 ddbc 6e2f 093d 58d3 533d 9ac5 463c
00000040: ee47 48bd f5e7 853c 55dc 403c 1605 0a3c
00000050: 1602 963d a771 e3bb 304d 073d 9dfa 323d
00000060: f0ff 09bd 48a8 ecbb c9c3 0d3c 6660 cd3d
00000070: 197c 0ebd 2104 b23b d632 913d b639 7a3d
-0.02910359 0.026227128 -0.029818779 -0.0035741695 0.05859892 0.052560262 0.012132259 0.003707744
0.038189128 -0.014205063 -0.025915753 0.030611232 -0.027064003 0.033492498 0.051715225 0.012132073
-0.048896722 0.016345957 0.011771281 0.008424064 0.073246166 -0.0069410386 0.033032596 0.043696035
-0.033691347 -0.007222209 0.008652636 0.10028152 -0.034786317 0.005432621 0.07089774 0.061090194

arr_6 f4 [32, 32]
00000000: bb36 f7bd 4c86 dfbd a51a 103e de74 8bbc
00000010: 8ef6 803e 8e98 a7be 5d4b 7f3d 98ae 993e
00000020: 10d9 88bd 30ac 1c3e e99c 0bbe 30e5 63be
00000030: 3f9a 03be e12c 643c 89d6 3d3e 37e1 60be
00000040: cc19 56be a489 b23d 8543 b5be b987 07be
00000050: 7838 b23e 5af5 0d3d 7614 643e cab0 adbe
00000060: a59b 3ebe 383a 063e c0ad 1a3e a046 3fbc
00000070: 522c a93d 76d4 a7be 484a 8c3d aef9 ba3d
00000080: a193 283e e697 9abe bf14 123e 2642 423e
00000090: 1605 35bd 613e e73c 5b49 eebd bae1 223e
000000a0: e2d6 f93c 3f28 533e cbc9 3f3e 3fd7 4abc
000000b0: a173 a43d 8dcd e6bd b1d1 47be 2bc1 263c
000000c0: ae22 0abe cffb 37be bde2 883d 3832 563e
000000d0: 3b0d 61be 2f0b 7b3e d04e 8dbe bcee dc3d
000000e0: 5664 bfbe 79cf bebd 915c e93e 4dc9 55be
000000f0: 3274 14be 9d6d b83d 9871 ca3b ab88 33be
00000100: fc77 fd3d d8c9 6c3e 4814 9b3e 72df 31be
00000110: 7dad 093e 7877 4dbe 321e 1cbe 2ad5 353e
00000120: a7fa 2abe b1d7 a13e 81e5 2dbd 3935 f2bd
00000130: a762 6b3e 9549 4cbe 0df3 723d e734 32be
00000140: c8ee 55bd a46d 313e 480a 02be dc6a 8f3c
00000150: bdf4 4abe a907 393e 0043 45be 9d50 54be
00000160: 794a b63e 25fa 2cbe cec1 8fbe 5c00 9ebe
00000170: 15d0 66be 9704 953e 04bd 1abe 7355 a53d
00000180: ffeb 2b3e 0a33 073e c805 9fbd 8769 003e
00000190: 18f9 45be a127 4c3e d30d 843e 810e 303e
000001a0: 6701 f33c 9faf 3f3c 6ef1 90be c511 a33d
000001b0: abd3 67be 8504 7f3e b128 9abd 471b 3d3e
000001c0: c985 813b 5720 90be fda2 563e 157b 96bd
000001d0: 5969 863e e63e 16be 34a8 cb3c dc20 18bd
000001e0: a741 0ebd 724f f8bd d06f d73c b0f4 16bd
000001f0: 634a aa3d f65c 3abe c171 04be bd85 1e3e
00000200: 36b3 1d3e eae0 e9bd cab4 b2be 6929 f63c
00000210: 2f11 90be ccaf 9e3e 1e8f a43e 21f5 a2be
00000220: 55b4 023d d60e f0bd 121a 7f3d 167b 69be
00000230: e89c 9b3d f134 b33d 024a 963d 2a14 64be
00000240: 71e7 113e 44a8 6dbe 364f 93be 166b b0bd
00000250: 8a51 2f3e 1c0a 35be fdff 853e 4aa3 86be
00000260: 3601 8bbe 116e 293e e40e 313d 9669 56be
00000270: 470c 5b3e 9704 acbd 101c 7fbe ac5b 62be
00000280: 0d15 1cbe 974f c0bd 8584 a23d d1f2 a23d
00000290: 2402 eabd 9a2e 05be a5f2 42bc 0506 523d
000002a0: 7885 74be 317b 04be 52bb 09be 3d1e a4be
000002b0: 720b a7bc ba9f a6bc d8c0 0e3e 2fff 843e
000002c0: 72c7 86bd babd 0f3d ccf7 3dbd d410 0cbe
000002d0: ad18 18be b731 84bc 4ca7 a43e 17ff 163d
000002e0: d3e5 d33d 2991 07be f1cb 7cbd c8b3 83be
000002f0: 75fc 93bd 0a37 45be 000f abbd 857e e6bc
00000300: a75f 5cbd 3fc4 403e e7d8 67bc a0b1 743e
00000310: a059 763e 54ee 423d d036 8d3e 56e9 acbc
00000320: ab64 ca3e eb1a cd3d f730 de3d 3be2 a93e
00000330: a615 82bd e0d9 89bd ef5d 14bd 56c1 96bd
00000340: 6563 86be 1e17 173e f1e8 e7bd 6db6 f7bd
00000350: ff83 b83d 985b a4bc 1550 033e f627 693e
00000360: fb4a 6e3e 562c 9dbe 846c 63be 192e 98bd
00000370: 7245 23be 3b0a e0be 00b4 3ebe 60c7 043e
00000380: 1bdc 75be fcf6 9e3e 5b4f cf3d d77c 143e
00000390: 8656 033e 987f 9fbd 78df 393e eafc 1dbd
000003a0: 563b a53d d706 3a3e e996 eebd 6a3d 373e
000003b0: 2556 763e 5511 ec3d 68a6 a43d 3202 e03d
000003c0: 4810 743c 5d60 363e 05dd 1cbe fcea e43d
000003d0: 2932 c2bd 5259 3fbd 840f 11be d2b8 1abe
000003e0: bc65 4fb9 59e6 6fbc d65b 0f3e 2d37 08be
000003f0: 1386 9b3c ab2d 703e 7e24 59bb bfac aa3d
-0.12070986 -0.10914287 0.14072664 -0.0170235 0.25188106 -0.32733577 0.06232773 0.30016017
-0.066820264 0.1530006 -0.13634075 -0.22255397 -0.12851809 0.013926716 0.1853887 -0.21960913
-0.20908278 0.08717659 -0.35403076 -0.13235368 0.34808707 0.034657814 0.2227343 -0.33923942
-0.18614061 0.13108146 0.15105343 -0.011674553 0.082604066 -0.32779282 0.068501055 0.09129654
0.16462566 -0.30194014 0.14265727 0.18970546 -0.044194303 0.028227987 -0.11635085 0.1590642
0.030497972 0.20620821 0.18729322 -0.01238042 0.08029867 -0.112696745 -0.19513585 0.010177891
-0.13489792 -0.17967151 0.06683872 0.20917594 -0.21977703 0.24515985 -0.27599192 0.107877225
-0.37381238 -0.09316916 0.45578435 -0.20877571 -0.1449745 0.09005282 0.006178092 -0.17532603
0.12376401 0.23123872 0.3028891 -0.17370394 0.13445087 -0.20065105 -0.15245894 0.17757097
-0.16697179 0.31609872 -0.0424552 -0.11826558 0.22986852 -0.19949944 0.059313823 -0.17402993
-0.052229673 0.17326981 -0.12699234 0.01750701 -0.19819923 0.18069328 -0.1926384 -0.20733877
0.35603693 -0.16892298 -0.2807755 -0.3085965 -0.22540314 0.29105064 -0.15111166 0.08072939
0.16789244 0.13203064 -0.077647746 0.12540255 -0.19333303 0.19936992 0.25791797 0.17193033
0.029663755 0.011699586 -0.28309196 0.07962374 -0.22639339 0.24904068 -0.075272925 0.18467437
0.003952716 -0.28149673 0.20960613 -0.07347695 0.2625225 -0.14672431 0.024860479 -0.037140712
-0.03473058 -0.12124528 0.026298434 -0.036854446 0.083149694 -0.18199524 -0.12934019 0.15480705
0.15400395 -0.11419852 -0.34903556 0.030049043 -0.2813811 0.30993497 0.3214044 -0.31827644
0.03191026 -0.1172158 0.062280722 -0.2280086 0.07598287 0.08750332 0.073383346 -0.22273317
0.14248444 -0.2320872 -0.2877137 -0.08614175 0.17120948 -0.17679638 0.26171866 -0.26296455
-0.2714936 0.16545893 0.04322709 -0.20938715 0.21391402 -0.08399313 -0.24913049 -0.22105283
-0.15242405 -0.093901806 0.07935432 0.0795647 -0.114261895 -0.13006058 -0.011898671 0.051275272
-0.2387904 -0.12937619 -0.13450363 -0.3205432 -0.0203912 -0.020339835 0.13940752 0.2597594
-0.0658101 0.035093047 -0.046378896 -0.13678294 -0.14853163 -0.016136987 0.32158887 0.036864366
0.1034657 -0.13238968 -0.06171793 -0.257231 -0.07225887 -0.19259277 -0.083524704 -0.028136501
-0.05380216 0.18824862 -0.014150835 0.23895884 0.24057627 0.04759057 0.2758088 -0.021107357
0.3952993 0.100149 0.10849183 0.33180413 -0.06351785 -0.067310095 -0.036222395 -0.07361095
-0.26247707 0.14754912 -0.11323727 -0.12095342 0.09009551 -0.020063207 0.12823518 0.2276915
0.2327079 -0.30697888 -0.22209364 -0.074306674 -0.1594446 -0.43757805 -0.18623352 0.1296668
-0.24009745 0.3104781 0.10122558 0.14500748 0.12825975 -0.077880085 0.18151653 -0.038571276
0.08067958 0.18166672 -0.116498776 0.17894521 0.24056299 0.11526743 0.08039552 0.10937919
0.01489646 0.17810197 -0.15318687 0.11177632 -0.094822235 -0.046716042 -0.14166075 -0.15109566
-0.00019778957 -0.0146423215 0.13999876 -0.13302298 0.01898483 0.23454921 -0.0033133323 0.0833373

arr_7 f4 [32]
00000000: 89b1 55bd 3db6 86bc 2e90 363d 41ac 1d3c
00000010: 6334 92ba 15d1 41bc bc47 b0bb dfca 993c
00000020: bdb1 8bbb 3320 1bbd 58f9 4ebc 05d0 09bc
00000030: 5605 60bd 7b9b abbc f880 133d 10fb d7bc
00000040: 38e1 00bd a3c2 933c e4fe 2d3c 1b19 4fbd
00000050: a77b 443d 7de5 a8bb 95b3 49bc 88f9 33bd
00000060: 0e9b 563b 3d3e 07bd f174 b23c a155 e4bc
00000070: db95 953d 232a 89bc e769 943c f8f0 abbc
-0.052171264 -0.01644432 0.044571094 0.009623588 -0.0011154528 -0.011829634 -0.005379645 0.018773494
-0.0042631314 -0.037872504 -0.01263269 -0.008411412 -0.05469259 -0.020948162 0.036011666 -0.026364833
-0.031464785 0.018037146 0.010619853 -0.05056105 0.047969487 -0.0051543103 -0.012310882 -0.043939143
0.0032746228 -0.03301834 0.021784278 -0.027872862 0.07303973 -0.016743725 0.018116904 -0.020988926

arr_8 f4 [2, 32]
00000000: 283d b63b a2db b33d ce8f 7dbe 80ce 913e
00000010: 31e2 533c dbf2 af3d e3d0 c7bd 096d fe3d
00000020: 3ddc 95be 0b76 09be 3e36 553e b36b a13c
00000030: 4e92 87be 9a1f 8a3e 36e1 9cbe 364a 90bd
00000040: 0734 0bbe cf6d afbe a7cb 79be cfd3 fd3e
00000050: 3de2 f43d eed6 10be 3658 efbd 46c7 473e
00000060: 4f93 95bd fbda ee3e 8be3 dbbe 27fb 1c3e
00000070: a1e1 3ebe 8377 36be 1523 783e d9d8 d23d
00000080: af98 bbbe d6d9 0f3e 88e5 893e 82fb 273d
00000090: db02 c23e cfa5 663e 9359 fabd e928 873e
000000a0: 9b0c 173e 3121 5d3e 555f 5fbe b1fd cd3e
000000b0: 3970 733b f388 0a3d b1d4 97be be41 893e
000000c0: 2891 313e 7420 12be b19c 0a3c 28a7 0c3e
000000d0: 82bf f33e 283b 07be 223f 333e 7fae cf3e
000000e0: 2232 b1be 34c7 abbd fa1a 27be 2b21 f6bd
000000f0: af57 9cbe 6314 28be 6ff9 323e 5705 94be
0.0055614896 0.08782126 -0.24761888 0.2847786 0.012932346 0.08591243 -0.09756639 0.124231406
-0.2926959 -0.13423936 0.20821473 0.019704675 -0.2647881 0.26977235 -0.30640572 -0.070454046
-0.13594066 -0.34263465 -0.24394093 0.4957566 0.11957214 -0.14144489 -0.11686747 0.1950961
-0.073034875 0.46651444 -0.4294704 0.15330182 -0.18640758 -0.17819028 0.24232133 0.10295267
-0.36639926 0.14047942 0.2693293 0.04101134 0.37892804 0.22524188 -0.12224116 0.263984
0.14750902 0.21594693 -0.2181371 0.40232614 0.0037145747 0.03382201 -0.29654458 0.2680797
0.17340529 -0.14270192 0.00846021 0.1373564 0.47607046 -0.1320616 0.17504552 0.40562817
-0.3460856 -0.08387604 -0.16318884 -0.12018045 -0.30535647 -0.16414027 0.17477964 -0.28910324

arr_9 f4 [32]
00000000: 8db1 55bd 39b6 86bc 2890 363d e7ab 1d3c
00000010: bc35 92ba f3d0 41bc c047 b0bb d3ca 993c
00000020: aab1 8bbb 1e20 1bbd 6ef9 4ebc f9cf 09bc
00000030: 3505 60bd 6e9b abbc 0181 133d 2afb d7bc
00000040: 2ce1 00bd 9ac2 933c 08ff 2d3c 0c19 4fbd
00000050: 8e7b 443d 46e5 a8bb eab3 49bc 76f9 33bd
00000060: 3e9b 563b 473e 07bd f874 b23c a755 e4bc
00000070: e295 953d 542a 89bc d769 943c 19f1 abbc
-0.05217128 -0.016444312 0.044571072 0.009623504 -0.001115493 -0.0118296025 -0.005379647 0.018773472
-0.0042631226 -0.037872426 -0.012632711 -0.008411401 -0.054692466 -0.020948138 0.0360117 -0.026364882
-0.03146474 0.01803713 0.010619886 -0.050560996 0.047969393 -0.0051542846 -0.012310961 -0.043939076
0.003274634 -0.033018377 0.02178429 -0.027872873 0.073039785 -0.016743816 0.018116875 -0.020988988

arr_10 f4 [32, 32]
00000000: 477f a2bd 8a9a 8f3d 9ea1 ddbd 959e 41bd
00000010: 7831 6f3d 33e4 c53b 77c7 e6bd 5c65 e0bd
00000020: a43a b23d 9d69 87be 8067 80bc 175b 1b3d
00000030: e052 fe3c 4d77 bd3c a56a e03d fdda 4c3e
00000040: 90ec a1bd 6628 e03b 9ab7 f8bd 596f 5ebe
00000050: 2f25 4f3d 262f be3d 238e 5dbe 122a d4bd
00000060: cd9b 3cbe 5729 103e 9f38 0a3e d9d6 343e
00000070: 964c 203e 74b3 fe3d 5c8a cb3d 7af1 0ebd
00000080: 0356 683e d92d 503d dbd4 b33d 7682 dd3d
00000090: ac83 79be 40a7 d5bd e7d7 c7bd c915 2bbe
000000a0: b3ea 23be 975e 203b 6f7b 14be aeab 72bd
000000b0: 5c18 8dbd 4005 ac3c 0d1f 08be 4d4d 22be
000000c0: 429a 373d 677f c3bc d817 97bd 82c5 0fbe
000000d0: e7cf 19be a4ff 473a 5a5c 2abb 6f57 6ebe
000000e0: 77e2 133e 29cd 5abe 7a68 8e3d ec57 1b3d
000000f0: 1da9 263e 3675 a63d 3a91 173e 879c e93c
00000100: c8b4 98bd 643a 363e f1e2 3fbe 5347 b43d
00000110: bdee 8bbe b04f 443d b719 823e 4383 45be
00000120: 57fd 033e e793 5abe 4d5d 99bd de14 19be
00000130: be32 4dbe 3e2e 5abd c03f a23d dd57 34be
00000140: 13b6 b4bd 3e48 5e3e 98de c5bc c863 e1bd
00000150: 5bbd ba3e 100b db3d df20 16be b603 303e
00000160: 5aaf 043e b17a 983d 3866 66bb d3a2 f03c
00000170: 698e 303e e567 193e 363f 933e 89f3 283e
00000180: b706 08be 49bf 5ebd 2f30 03be 1216 f9bd
00000190: bdef 14be 259a 5ebe ffc4 533e cfa8 da3d
000001a0: e77c 1e3d c669 68be 1047 693e e53f 303d
000001b0: 4b0f ff3e 8f46 be3d a3e4 98bd 472a 273e
000001c0: f286 323e cdcc a23d 8635 ba3e d6f4 513e
000001d0: 7809 89bc bda9 a33d 7220 c4bd 5c8b 46bd
000001e0: 9dae dabd cf8c 2fbe a6d8 3c3e 3f67 663e
000001f0: e7c2 a03e f24a aa3d 9c81 ff3d 73b3 393d
00000200: 33cd d13d 8d08 0d3e 93e8 2b3e 5ed1 5c38
00000210: d630 5b3d 0071 68be 1946 1f3e 8ff2 a5bd
00000220: 52ff 83bd 9669 e93c 33d0 5bbd cdbb 1b3e
00000230: b743 aabe 75ff adbd aff3 a4be 553e 7fbe
00000240: 97ec a7be 1411 21bd e722 7a3d 38cc 06be
00000250: 903e dc3c e1fe d5ba d173 363d 6d7f 2c3d
00000260: 683f 5dbd 9c51 65bd a06b 893d 67ea 113e
00000270: 1cae 273e 6f6a 8dbe 64fd cbbe 5466 f03d
00000280: 7f32 26bd ffaf ccbc c916 84bd 4ab2 4e3e
00000290: fe22 403e b709 54be 768c 18bb b43e 633e
000002a0: 7c17 98bd a241 d63c e5ef 973d 534c 15be
000002b0: 6307 5c3e a9c9 ecbd 13be 8f3c 29f7 87bd
000002c0: 4049 7fbe adc1 183e ba77 583c 1738 b73d
000002d0: d1f4 e0bc 239f e53d 53ac fd3d c4bc 92bd
000002e0: 2cd1 833d 3fe0 283e 2325 0cbe 6925 59be
000002f0: bf57 d9bd 1d56 61be db80 4d3e 0795 3cbe
00000300: 7493 96be 0d94 8b3c 7127 413e 01b3 1abe
00000310: 7054 193e dd75 7d3d 3b8a 93be 891d 373e
00000320: 2788 81bd edf0 0b3e 65a0 31be 3acb 823d
00000330: 9d9c 283e 22d6 dfbb f47c 75bd d922 67be
00000340: b1b5 19be 9a19 8f3e 2aa9 2d3e ad00 c3bd
00000350: 7240 333e ad0e 1bbd 409c 9b3e 5580 d83d
00000360: 1beb 32be 32eb d2bd 2f19 013d 8736 a23e
00000370: ed95 3b3e 165a 0ebe a9b9 3d3e 8677 823e
00000380: 161b 25be e10b c1bd 1887 55be 878d 193e
00000390: 911d 5a3e a271 b4bd 9587 8bbe 9675 853d
000003a0: 4acb b6bd 4d5e 1b3e d02f 093e c023 31be
000003b0: 5715 a0be f992 423e 009d 41be 43b5 1e3e
000003c0: 9f34 19bc 31f7 21bd e258 2a3e cd44 913d
000003d0: b567 e0bd 85a1 a83e 50a5 89be eb27 cdbd
000003e0: e20c b13c 97d3 0f3e 2b1c 96be f73b fcbd
000003f0: a8d3 973d e86e 8c3d be88 d23d 7c06 893d
-0.079344325 0.07011898 -0.10821842 -0.047270376 0.058396786 0.0060391664 -0.11268514 -0.10956833
0.08702591 -0.26447764 -0.015674353 0.037928667 0.031045377 0.023128176 0.10957841 0.20005412
-0.07906449 0.0068407534 -0.12144394 -0.21722163 0.05057257 0.092863366 -0.21636252 -0.10359587
-0.18418808 0.1407827 0.13498162 0.17660083 0.15654215 0.12436572 0.09938499 -0.03489826
0.22689061 0.050824974 0.08780833 0.10815899 -0.24366635 -0.10432291 -0.09757977 -0.16707529
-0.160075 0.0024470442 -0.14500211 -0.059245758 -0.06889412 0.020998597 -0.13293095 -0.158498
0.044824846 -0.023864461 -0.07377595 -0.14040187 -0.15020715 0.0007629341 -0.0025994987 -0.23275541
0.14441858 -0.21367325 0.06953521 0.037925646 0.16275449 0.08127825 0.14801493 0.02851702
-0.07456356 0.17795712 -0.18738915 0.088026665 -0.2733058 0.04792756 0.25410244 -0.19288354
0.1288961 -0.21345483 -0.07488499 -0.14949366 -0.20038888 -0.053266756 0.079223156 -0.17611642
-0.088237904 0.21707246 -0.024153993 -0.1100536 0.36472592 0.106954694 -0.14660977 0.17188916
0.12957516 0.074452765 -0.0035156142 0.029374516 0.17241825 0.14981039 0.28759164 0.16499151
-0.13283812 -0.054381642 -0.1281135 -0.12162413 -0.14544578 -0.21738489 0.20680617 0.10676729
0.038693335 -0.226966 0.22781014 0.043029685 0.49816355 0.09290802 -0.07465484 0.16324721
0.1743429 0.07949219 0.3636896 0.20503554 -0.016728148 0.079913594 -0.09576501 -0.048472747
-0.10677836 -0.17143558 0.1844202 0.22500323 0.313987 0.08315076 0.12475893 0.04533715
0.10244217 0.13772793 0.16787939 5.2647076e-05 0.05351337 -0.22699356 0.15554084 -0.08102905
-0.06445183 0.02849273 -0.05366535 0.15208359 -0.33254787 -0.0849599 -0.32217166 -0.24926122
-0.3279769 -0.039322928 0.06106844 -0.13163841 0.0268853 -0.001632657 0.044544045 0.04211371
-0.054015547 -0.055986032 0.06709981 0.14249574 0.16375011 -0.27620265 -0.3984176 0.117382675
-0.0405755 -0.024986265 -0.064496584 0.201852 0.18763348 -0.20706831 -0.002327708 0.22191888
-0.07426354 0.026154343 0.07418803 -0.14579897 0.21487193 -0.11561901 0.01754669 -0.06638939
-0.24930286 0.14917631 0.013212139 0.08946245 -0.027460488 0.112119935 0.12386384 -0.071649104
0.06436381 0.16491793 -0.13686042 -0.21205677 -0.10612439 -0.22005506 0.20068686 -0.18416224
-0.29409373 0.01703837 0.18862702 -0.15107347 0.14973617 0.06187998 -0.288164 0.1788236
-0.06324797 0.13666125 -0.17346342 0.06386419 0.16465993 -0.0068309465 -0.059933618 -0.22571887
-0.15010716 0.2794922 0.16959062 -0.09521613 0.17505053 -0.037855793 0.30392647 0.105713524
-0.17472498 -0.10298766 0.031518158 0.31682226 0.18318911 -0.13901553 0.18527855 0.25481814
-0.16123614 -0.09426094 -0.20852315 0.14995395 0.21300341 -0.08810736 -0.27251878 0.06516568
-0.08925493 0.15172692 0.13397145 -0.17298794 -0.3126628 0.19001378 -0.18907547 0.15498833
-0.009350925 -0.03954238 0.16635469 0.07093201 -0.109572805 0.3293573 -0.26883936 -0.100173794
0.021612588 0.14045559 -0.29318365 -0.12316125 0.07413417 0.06857091 0.10279988 0.0669069

arr_11 f4 [32]
00000000: 6bf5 8d3d dafc b7bd b584 413d b886 36bd
00000010: 0b69 433d bf6e 7abc 00b7 bc3d bb8b a13d
00000020: 9d6e 2c3d a366 8ebd cf4c 0d3c a89b 483d
00000030: bd6b bdbc 7c72 95bd ee2b a0bb 3431 e7bc
00000040: 4a91 d03d b9e7 a83d 416d d9bc 34db 3ebd
00000050: 4288 20be eafa 2b3d f6bc 98bd 4df4 6a3d
00000060: 0f3d a73b a7cb b1bd 2ae4 713d 4bab 7f3a
00000070: 945a a93d ba0d 14bd c997 c9bd 63c8 e7bd
0.069315754 -0.089837745 0.0472457 -0.04456207 0.0477076 -0.015285193 0.09214592 0.078879796
0.042097677 -0.0695317 0.00862427 0.04897657 -0.023122663 -0.07297227 -0.0048880493 -0.028221704
0.10183962 0.082473226 -0.026541354 -0.046595767 -0.15676978 0.041987337 -0.074579164 0.05736189
0.0051037143 -0.08681422 0.059055485 0.00097530027 0.082692295 -0.036145903 -0.09843404 -0.113175176

arr_12 f4 [32, 32]
00000000: 7514 3ebe ea2c f8bd 124d 1b3e 88b8 4c3e
00000010: f329 a0bd 5f1b 6c3d 9400 173e b94c 8f3d
00000020: fa9d df3d 6bee 4b3e f378 693d cd47 8b3d
00000030: c0be 633d 9caa 203e 9e1a 00be c331 13bd
00000040: 81e8 5dbe 702d 3bbe 4d4f 673d 5aff c6bd
00000050: 5b5f 233e 7cd0 1e3e 0583 eabd 4a10 70be
00000060: c4cb b53d 2559 8fbd c2bf debb cba6 ac3d
00000070: f896 6b3c 62d4 8f3d 2fbf 0cbe 14c8 24be
00000080: f2b7 ecbc 80a4 bf3d 90da 8c3d e1af 5c3e
00000090: 5ead 3b3e 660c 2b3e 834a c7bc e7cb 243e
000000a0: 0ead 943e b191 a03d 5502 d63d e11b 813e
000000b0: e7af 503d d49b d63d 7c53 5ebd 78bb 8cbd
000000c0: 02f3 9b3d 5b5a 08be c108 a53c b44d 303d
000000d0: 752d 8a39 f3dc 48be 24a8 d6bd 85f0 fb3d
000000e0: 6270 2a3d f135 cfbd 61b5 17bb 07d3 c53d
000000f0: 9ff2 783d 0a67 2d3e 7b2b 09be 392c 0abe
00000100: b127 a7bd 57f1 db3d 46dd 563e 3612 0c3e
00000110: 9c27 033e 6b1b 263e ce78 853d 1955 143d
00000120: 2d4b ff3d ec07 3b3e 5a01 86bd 2f87 15bd
00000130: 4af9 133d 325d f13d e95b c6bd 029d 523e
00000140: 9ccf 2639 457a c2bc b6b5 88bd 4274 d63d
00000150: 6e17 0ebe 9ed3 bdbd 333f b73d 6f4f 10be
00000160: 9803 1cbe d563 ad3d 4d1d 653d f3e1 47be
00000170: d05f 353e b780 75be 8578 7ebd 8ff9 d13d
00000180: bab2 1dbe b349 333e e066 c33d eb8d b1bd
00000190: 117c f7bc 19c5 55be 169f 9d3e acbd bebd
000001a0: 66e3 133e 9d55 5abb fb99 22bd 76c8 8c3e
000001b0: d668 5cbe e7ce c5bd f465 ffbd b004 0bbe
000001c0: 8d3f 5ebe c3bd a73e bddb 9e3d c12d 53be
000001d0: fe50 2b3e 0860 31be 1784 363e ec2e 40be
000001e0: b6da a0bc 6712 b0ba 6010 99be f7a5 533e
000001f0: 3c4b 6abe be52 563d 982b 7f3e 57bf 59bd
00000200: 8778 82bd ea97 23bd 811e b33d 2219 2e3e
00000210: f82f 81bd bb2e 2bbe bfa2 c4be ed85 cebd
00000220: 29a1 38be c30e 36bd ef5d 473e afd7 a5bd
00000230: 35e9 0c3e 6a63 493e 1dbf 00bd 772e 9f3e
00000240: 6c57 703d 6641 00bd 0431 12be 50f9 633d
00000250: d7dc 1c3e 51ae 96bd 312b 143e 56cf 5f3e
00000260: eb4a 8e3d b1a2 5abe 9279 6fbe 5b34 173e
00000270: 66ba b23d e35f 653a e4ad 0b3e 27c0 9b3e
00000280: 7570 373e 2d31 98be 1b40 44be ef6b d9bc
00000290: a62d 94bc b0fd 263d 0343 8f3d e65b f83d
000002a0: eb47 b9bd 3112 f23d 0531 62be 2ada 7b3e
000002b0: a727 8e3c 6f0a a3be 3eec 81be 6be4 863e
000002c0: 349c ac3e d713 0ebe 9e71 51be 0219 26be
000002d0: c5f4 2b3d 1522 aa3e 7fc3 e5bc 4790 c33e
000002e0: 4a49 263e 9c62 c1bd 03c6 383d 3f2e 9d3e
000002f0: 5be7 87be 5553 a9be b4ee a43e 49fe 123e
00000300: 0f3d 303e 0cf3 aebc bcb7 84bd a0f2 2bbd
00000310: 4353 04be dd43 0e3e f965 80be 01b3 48be
00000320: 74fc f2bd 223c 23be b37b 403e 2b58 7f3e
00000330: eb8f 56be a1d4 25bd 7bb4 3c3e 553c 05bd
00000340: 66b3 40bd c873 1a3e 24b4 75be ddf6 2c3e
00000350: 5adb 113e e237 37be 7df9 653e 50d7 43be
00000360: 6888 203e 972f 103e 0584 1d3e 8c62 c1bd
00000370: f3b3 0a3e 1156 9bbc 92b7 d23d ea48 283e
00000380: f674 1f3e 0a2b 69be b433 6e3e bdc8 b53d
00000390: 754d 82bd 1b74 79be 291a 2dbe 8bff 853d
000003a0: 77ee a53e 2b6d a4be 54a5 203e d4a3 f63d
000003b0: 22bb 9abd d829 0e3e aad7 803e 6a5e 76be
000003c0: 38cb 123e 73b4 843e 1105 39be 4679 d53c
000003d0: a78a 66bd 968a 5abe ae02 5e3e f3ba 093e
000003e0: 84ce 4cbb f5d7 423d 88bc 55be 2c94 59bd
000003f0: aa25 04be 71ae ca3d 47c9 903c d661 5ebe
-0.18562491 -0.12117942 0.15166119 0.19992268 -0.07820501 0.05764329 0.14746314 0.069970556
0.109188035 0.19915168 0.05700011 0.06800804 0.055601835 0.15690082 -0.12510154 -0.03593613
-0.21670724 -0.18279052 0.05647211 -0.09716673 0.15954344 0.15509218 -0.11450771 -0.23443714
0.08876756 -0.06999425 -0.0067977617 0.08430251 0.0143792555 0.07022931 -0.13744806 -0.16091949
-0.028896306 0.09357548 0.06877625 0.21551467 0.18327853 0.16703948 -0.024327522 0.16093408
0.2903828 0.078402884 0.104496635 0.25216582 0.050949004 0.104789406 -0.054278836 -0.06871694
0.076147094 -0.13315718 0.020145776 0.043042853 0.0002635528 -0.19615535 -0.10481289 0.12301735
0.041611083 -0.101177104 -0.0023148882 0.09659391 0.060778257 0.16933838 -0.13395493 -0.13493432
-0.081618674 0.10739391 0.20982847 0.13678822 0.12808079 0.16221397 0.06517182 0.036213968
0.124655105 0.1826474 -0.065432265 -0.036505874 0.036126412 0.11785354 -0.09685499 0.20567706
0.00015908334 -0.023739943 -0.066752836 0.10471393 -0.13876125 -0.092688784 0.08947601 -0.14092802
-0.15235746 0.08466307 0.055936147 -0.19519787 0.17712331 -0.23974882 -0.062126655 0.10252678
-0.1540021 0.17508583 0.09541106 -0.08669647 -0.030210527 -0.20875968 0.30785435 -0.09313521
0.14442214 -0.003331519 -0.03969763 0.2749669 -0.21524367 -0.09658604 -0.12470618 -0.13576007
-0.2170393 0.32761964 0.077567555 -0.20622922 0.16730115 -0.1732179 0.17823826 -0.187679
-0.01963554 -0.0013433219 -0.29895306 0.2066878 -0.22880262 0.052325003 0.24918973 -0.05316099
-0.06370645 -0.0399398 0.087460525 0.17001775 -0.063079774 -0.16717045 -0.38405415 -0.10084138
-0.18030228 -0.04444767 0.19469427 -0.08097779 0.13760836 0.1966683 -0.03143226 0.31090137
0.058677122 -0.03131237 -0.1427651 0.055657685 0.15318619 -0.07357467 0.14469601 0.21856436
0.06947883 -0.21351124 -0.23386219 0.14766066 0.08726959 0.0008749945 0.13640553 0.30420038
0.17913993 -0.29725018 -0.1916508 -0.026540725 -0.018088173 0.04076928 0.06995203 0.12126903
-0.090469204 0.11819876 -0.22089012 0.24594942 0.017352892 -0.31843898 -0.2537555 0.26346144
0.33712924 -0.13874756 -0.20453498 -0.16220477 0.041981477 0.33229128 -0.028047321 0.38196012
0.16238895 -0.09442636 0.045110714 0.30699345 -0.26543698 -0.3307139 0.32213366 0.14354815
0.17210792 -0.021356128 -0.06480357 -0.041979432 -0.12922387 0.13893075 -0.250778 -0.19599535
-0.11864558 -0.15940908 0.18797188 0.24935977 -0.20953338 -0.04048598 0.18428223 -0.03252824
-0.047046088 0.1508323 -0.239945 0.16891046 0.14243832 -0.17892411 0.22458453 -0.19125104
0.15677035 0.14080654 0.15382393 -0.094426244 0.13545208 -0.018961938 0.102889195 0.16434065
0.15571961 -0.22770324 0.2326191 0.088761784 -0.0636243 -0.24360697 -0.1690451 0.065428816
0.32408497 -0.3211454 0.15688068 0.120429665 -0.07555224 0.1388315 0.2516454 -0.24059454
0.14335334 0.25918922 -0.18068339 0.026058804 -0.056284573 -0.21341929 0.2168071 0.13450222
-0.0031251023 0.047569234 -0.208727 -0.053119823 -0.12904993 0.09896553 0.017674102 -0.21717009

arr_13 f4 [32]
00000000: 84b1 55bd 03b6 86bc 1990 363d 41ad 1d3c
00000010: 3832 92ba 7fd1 41bc 4d46 b0bb 08cb 993c
00000020: 93b1 8bbb f81f 1bbd 56fa 4ebc 65cf 09bc
00000030: 6505 60bd 479b abbc fe80 133d ddfa d7bc
00000040: 2de1 00bd a1c2 933c 51ff 2d3c 0119 4fbd
00000050: 937b 443d e3e4 a8bb 96b3 49bc 8ff9 33bd
00000060: 389a 563b 363e 07bd 1275 b23c db55 e4bc
00000070: da95 953d cf29 89bc 246a 943c c1f0 abbc
-0.052171245 -0.016444212 0.044571016 0.0096238265 -0.0011153882 -0.011829733 -0.0053794743 0.01877357
-0.004263112 -0.037872285 -0.012632927 -0.008411263 -0.054692645 -0.020948065 0.03601169 -0.026364738
-0.031464744 0.018037142 0.010619954 -0.050560955 0.047969412 -0.0051542385 -0.012310883 -0.04393917
0.003274573 -0.033018313 0.02178434 -0.02787297 0.073039725 -0.016743569 0.018117018 -0.020988824

arr_14 f4 [10, 1, 16]
00000000: 760b a0bd 5254 0b3e ac9b 473e 304c 093e
00000010: 012e 573e 6ec3 123d c834 16be 73f0 cc3d
00000020: 1f6e 423b f99f d83b 7c9e 09be 5c43 e3bd
00000030: e84f a4bd 0eb3 d33c 1d45 0ebe 23b3 8c3d
00000040: 05e9 a7bd 422d 8e3e 6e82 233e c3fa 4f3e
00000050: 55c8 533d e3be d3bc 04db f9bc c806 033e
00000060: 4297 073e 58fb 4c3e a9ae 1bbe c4ec 00be
00000070: 3b43 39be ac08 fa3d a2bf 4ebd 4ad1 ea3d
00000080: 13ab b5bb 8fbc 2a3e 1e3a d93d c19b 353e
00000090: 3468 943d 6ca6 00be 92e0 663e 8e35 083e
000000a0: efee 1a3e 883b 5c3e d891 1fbe d416 2cbd
000000b0: b6ce dcbd 0b36 333e 4ab1 0dbd 6c22 483d
000000c0: 4c7d 963d 5fe5 3d3e c525 0e3d 1f36 4f3d
000000d0: 855c 233d 27f6 1cbe 86e0 53be 63f7 d93d
000000e0: 6246 873e 4508 a63d 4938 69be 67b1 f43d
000000f0: 012b 21bd 4aa0 293e d4dc 1fbc 288f bbbd
00000100: b232 d53d 138f 093e 7838 85bb f3e6 d2bd
00000110: dfd6 ae3c 9036 b6bd b90f a73d 78c6 8d3d
00000120: 6f22 293e 5f71 b03c b36d a8bd 73ba 403e
00000130: 4db4 733d e8e9 c13c 6681 2dbd 2cca 5abe
00000140: cdf5 3f3d bcd1 b93d 368b 3b3d 4ca0 4fbe
00000150: 4c96 15bd 3c25 ff3c 6285 7fbd 189d 4abc
00000160: 8120 003e f2a2 2abc ef70 20be cca0 fd3d
00000170: 404b d33d 03b7 5ebd 34b3 82bd 3fce 3fbe
00000180: f95e 9cbd d0bc 1ebe 0f33 82bd 3686 49be
00000190: 0024 e63c 91ba f83d 5340 e13c 9468 c9bd
000001a0: 7af5 6a3c 21bd 1fbe e9a8 8fbd 842c a73c
000001b0: 2916 f43d b2ab 9cbc 2504 61be 0a08 9ebd
000001c0: 6c55 40be 74df 1bbe 8e71 37be 6b2d febd
000001d0: a38a e3bd b120 cc3d 7145 983d 1523 36be
000001e0: 11b0 9dbd 2dd5 65bd e88c 7abd 3a6d 7abd
000001f0: 479e 153e 028b 453d d888 1ebe 2640 8a3d
00000200: 3612 75be c23b b6bc d79c 98be 793a f1bc
00000210: cc92 cbbb e404 743d 4dce 49be 9537 34be
00000220: 847c 6bbd 2fc1 c7bd b23b 95bc 1bcc b7bd
00000230: 6b67 273e 3487 1d3e 60d4 a03a 4f05 0f3e
00000240: dd28 5ebe 5e51 b93d 15a3 82be 0531 103d
00000250: 1fed 7cbe 0c02 323c 6dcb db3d 5bb7 fabd
00000260: d0dd 3fbe b238 18be cb46 0b3e 7354 6dbd
00000270: 61e5 223b 2553 4d3e d986 363e 482d 283e
-0.07814686 0.13606384 0.19492978 0.1340797 0.21013643 0.035830908 -0.14668572 0.100067995
0.0029667688 0.006610867 -0.13439363 -0.11096832 -0.080230534 0.025842216 -0.13893552 0.06870105
-0.08198742 0.27768904 0.15967724 0.20310502 0.051704723 -0.025847858 -0.030499943 0.12795556
0.13241294 0.20017755 -0.15203346 -0.12590319 -0.18092053 0.12208685 -0.050475724 0.114657
-0.0055440753 0.16673492 0.10606788 0.17735197 0.07246438 -0.12563485 0.22546604 0.1330168
0.15130208 0.21507084 -0.15582979 -0.042013958 -0.107816145 0.17501085 -0.034592904 0.048860952
0.07348117 0.1854453 0.03470399 0.050588723 0.039883155 -0.15328275 -0.20691118 0.106428884
0.26420885 0.08107046 -0.22775377 0.11947899 -0.039347652 0.16565052 -0.009757239 -0.09158164
0.1041006 0.13433485 -0.0040655695 -0.10297956 0.021342693 -0.08897126 0.08157296 0.069226205
0.16517042 0.021538435 -0.082240485 0.18821125 0.05949812 0.023671106 -0.042359732 -0.21366185
0.046865273 0.09073207 0.04578706 -0.20275992 -0.036520287 0.031145684 -0.062383063 -0.012366556
0.125124 -0.010414826 -0.15668081 0.12384185 0.10317087 -0.054373752 -0.063818365 -0.1873102
-0.07635302 -0.15501714 -0.06357395 -0.19680104 0.028093338 0.1214496 0.027496492 -0.098344
0.014340753 -0.1559949 -0.07014639 0.020406969 0.11918289 -0.01912484 -0.21974237 -0.07716377
-0.18782586 -0.1522196 -0.17914411 -0.124110065 -0.11110427 0.09967173 0.0743512 -0.1778682
-0.076995976 -0.056111503 -0.061169535 -0.061139323 0.1461116 0.04822827 -0.15481889 0.067505166
-0.23932728 -0.022245292 -0.2980716 -0.029446827 -0.006212568 0.059574977 -0.19707604 -0.17599328
-0.057491794 -0.09753644 -0.018216942 -0.08974477 0.16348045 0.15383607 0.0012270324 0.13966869
-0.21695276 0.09048723 -0.25515047 0.035203 -0.2469983 0.010864746 0.1073216 -0.122420035
-0.18736959 -0.14865378 0.13601224 -0.057941865 0.0024855959 0.20051248 0.17824878 0.16423523

arr_15 f4 [16]
00000000: 06df e93a daaa 84ba 2fc8 b53b 0319 a2bb
00000010: 1e26 563c fac9 7d3c 7f37 cdbc c3f8 e7bb
00000020: ca23 28b9 9108 8b3c 5031 ef3a 46ea 9e3c
00000030: 8971 2dbc 26e2 f538 92ec 72bb cedd 43bc
0.0017842955 -0.0010121719 0.0055475454 -0.0049468293 0.013070611 0.0154900495 -0.025050877 -0.0070792153
-0.00016035061 0.016971858 0.0018248949 0.01939882 -0.010586151 0.00011724634 -0.0037067276 -0.011954738

arr_16 f4 [16]
00000000: 92fc 6a3f 7efd 373f fed2 663f 5356 933f
00000010: 257d 873f 9f05 983f 295d 233f f091 8f3f
00000020: ebc2 503f 27b4 6d3f 0a41 503f 7465 8c3f
00000030: 7742 713f adea 783f 93e5 563f 33a9 963f
0.9179164 0.71871173 0.901657 1.1510719 1.0585066 1.1876715 0.63814026 1.1216412
0.8154742 0.92853016 0.8134924 1.0968461 0.9424204 0.97233087 0.8394405 1.1770386

arr_17 f4 [16]
00000000: 4af4 11be 95ed 763d 98a7 263d a5fa e4be
00000010: edd5 2a3e 37d6 833d 3da1 803e afab b1be
00000020: 2873 4c3e e417 873e 1bc8 7b3e 12ea e9bb
00000030: a675 623d 7a53 873d 139f b53d b08a 673d
-0.14253345 0.06028517 0.040687174 -0.44722477 0.16683169 0.064373426 0.25123015 -0.34701297
0.19965804 0.26385415 0.24588053 -0.007138499 0.05528798 0.06607719 0.088682316 0.056528747

arr_18 f4 [16]
00000000: 8867 073b abc4 a8ba 421c bc3b bb79 9cbb
00000010: 86b0 573c 997e 803c 9c12 cabc 2105 e9bb
00000020: 3f21 deb9 d8a6 8a3c 002a 123b 499b 9c3c
00000030: 01dc 31bc 6b0e b7b9 e4dc 60bb a729 3fbc
0.0020661075 -0.0012875994 0.0057406733 -0.0047752536 0.013164645 0.015685366 -0.024667077 -0.007111207
-0.0004236791 0.01692526 0.0022302866 0.019117014 -0.010855676 -0.00034915222 -0.0034311349 -0.011667646
